lenet.pt (torch, 248442 bytes, 5 tensors)

conv1.conv.weight f4 [6, 1, 5, 5]
000000 bc 65 93 bd 43 83 d9 3d 5d a5 5e 3d bc d7 32 3e
       -0.07197139 0.10620739 0.05435692 0.17465109
000010 31 a6 d3 bd d3 2a f3 bb cc e3 83 3e f2 4d 0b 3e
       -0.10334433 -0.0074208765 0.25759733 0.13603953
000020 60 a6 df bd f8 1d fd bd e9 15 44 3e ba 3e 43 3e
       -0.109204054 -0.12359232 0.19148983 0.19066897
000030 fd 5b 19 be 08 3d 59 be 1b 6c d2 3d 09 75 de bc
       -0.14976497 -0.21214688 0.10274526 -0.027155416
000040 7f 96 03 3e 95 ab ad bb 35 f9 ab bd 1c 08 38 be
       0.12850378 -0.005299995 -0.08397142 -0.17971843
000050 f2 73 39 3e 6d 9b 70 3e 76 d3 6f 3d 43 6a 86 bd
       0.18110636 0.2349679 0.058551274 -0.065632366
000060 5f 04 a6 bd 9b f4 dc 3b 08 23 2b be 33 ff b5 ba
       -0.081063025 0.0067430264 -0.16712582 -0.0013885259
000070 f7 2c ad 3d 78 49 44 bd de 64 7f 3e 73 84 ce bd
       0.08455842 -0.047921628 0.24940822 -0.100838564
000080 91 d2 2e be 54 28 55 be 8f 12 26 be d0 ec 14 3e
       -0.17072512 -0.20816165 -0.16218017 0.14543462
000090 5e e0 86 3d 62 ac 32 3e fe fd 57 3e b7 17 59 bd
       0.065857634 0.17448571 0.21092984 -0.05300113
0000a0 8f 27 c0 3d c1 c6 a6 3d 94 0c 2e 3e 94 ee 3b bd
       0.09382545 0.08143378 0.16996986 -0.045881823
0000b0 8f 5e aa 3d b5 c9 b3 3d 58 b8 78 be 31 48 03 be
       0.08318817 0.08778707 -0.24289072 -0.12820508
0000c0 f8 3a 06 3d 48 3f d9 bd de f6 64 3e 06 e2 11 3e
       0.03277108 -0.10607773 0.22359797 0.14246377
0000d0 47 49 3e 3d 23 03 b0 3d 02 a6 db 3d 5d a2 79 bd
       0.0464566 0.08594348 0.10725023 -0.060945857
0000e0 28 63 5a bd 08 2c 95 3d 29 e3 ba 3c df f5 aa bd
       -0.05331722 0.07283789 0.022813397 -0.083476774
0000f0 ee 73 7b bb 1f c7 25 bd 6e 96 9e bd 51 be bd bd
       -0.003836866 -0.0404731 -0.07743536 -0.092648156
000100 b3 e1 5a bd bf 60 b1 bc 8f fc a2 bc 2a 3d ec bc
       -0.0534379 -0.021652577 -0.01989582 -0.028837759
000110 81 fa 89 bc 07 51 d2 3c c8 85 95 3d e1 90 aa bd
       -0.016843082 0.025673402 0.073009074 -0.08328415
000120 71 89 23 3d b3 08 60 3b 67 43 6b bc f1 ea 63 3e
       0.039925996 0.0034184873 -0.014359332 0.22257592
000130 60 09 00 3e b8 c1 0c 3d c5 03 fa 3d c1 28 9e bd
       0.12503576 0.034364432 0.1220775 -0.07722617
000140 c6 2b a3 3d 5a 85 d3 3c 81 4e 2e 3e 18 6c 17 3d
       0.079673335 0.025820423 0.17022134 0.03696832
000150 b8 fa fa 3d 49 65 c4 3c 29 71 ff 3a 32 67 25 3d
       0.12254852 0.023974078 0.001948868 0.040381618
000160 e0 f0 4f 3c e4 5b 13 3e fe f0 8a be fa e2 10 be
       0.012691706 0.14390522 -0.27136987 -0.14149085
000170 fb bc 26 bd 97 f8 85 bd d4 db 4a 3e 6c e2 d6 bc
       -0.04070757 -0.065415554 0.1981042 -0.026231013
000180 75 7e 0b be e5 c5 4d be cf 40 68 be 58 96 89 bd
       -0.13622458 -0.20095022 -0.22680973 -0.06718129
000190 3f 17 2f 3e 3f f6 02 be f2 9c 95 be a4 d1 bd 3d
       0.17098711 -0.12789248 -0.29221302 0.092685014
0001a0 7a 3f 2c 3e f7 d3 d3 3d 98 b9 72 be ec 69 6a be
       0.1682109 0.103431635 -0.23703611 -0.22891968
0001b0 32 df 0f be b4 c1 8d 3c f9 04 7d 3e 40 7f c3 3d
       -0.14049986 0.017304279 0.24708928 0.095457554
0001c0 41 fd 8d be bb e4 50 bd 00 6b 37 be cd e7 4c 3e
       -0.2773228 -0.050999384 -0.17911911 0.200103
0001d0 35 4e a7 3e 80 68 90 3e af 37 42 bd 11 35 e5 3d
       0.32676855 0.28204727 -0.047416385 0.11191762
0001e0 25 24 ae bd b6 63 21 3d ee 55 23 3e b9 c3 2a 3d
       -0.08502988 0.039401732 0.15950748 0.041690562
0001f0 31 0e cc bc 7c f5 45 3e c6 7c d9 ba 0e bf 14 3d
       -0.02490911 0.19331926 -0.0016592972 0.036315016
000200 d5 71 b7 bd e2 df c9 3b c5 d0 ad bc 34 5b ef 3d
       -0.089572586 0.006160722 -0.021217713 0.116873175
000210 a9 29 8b be 95 47 43 be 9d fc 42 bd 2f b6 d2 bd
       -0.27180222 -0.19070275 -0.047604192 -0.10288655
000220 d6 85 8d be 9b 0b 7c be 24 47 88 3d 56 f3 40 3e
       -0.2764117 -0.24613802 0.06654194 0.18842825
000230 12 b7 cb 3c bd 21 66 be 4f b5 f2 3d 76 ea 68 3c
       0.024867568 -0.22473808 0.11850988 0.014216056
000240 6a c3 fb 3d b1 b7 81 3d 8a da 4b 3e ea df 9f 3e
       0.12293132 0.063338645 0.19907585 0.3122552
000250 1c c7 48 3c 9d 4c 56 3d
       0.012254503 0.052319158

conv3.conv.weight f4 [16, 6, 5, 5]
000000 8c 3e dc bc cf 09 a5 bd a7 ff 9a 3c 35 94 c0 3b
       -0.026885293 -0.080585115 0.018920733 0.0058770427
000010 9d 36 4b 3e 1d f4 e9 bd 92 1c de bd b6 76 41 3d
       0.19845052 -0.11423514 -0.10845293 0.047232352
000020 88 61 a8 3d 3c 7a d4 3d aa 1d b3 be 76 f6 f5 3d
       0.082217276 0.10374877 -0.3498357 0.12009899
000030 7f 51 4a 3d 06 5e 98 3d 26 27 f6 3d e9 5c 7a 3d
       0.049394127 0.074398085 0.12019186 0.061123762
000040 3d c7 41 3e f5 16 e8 bd a9 87 9b be a7 55 96 bd
       0.1892366 -0.11332504 -0.30376938 -0.07340556
000050 6f 35 53 3e 39 f5 ec 3c ef 56 15 be 43 8b de be
       0.20625852 0.028925525 -0.14583944 -0.43465623
000060 e5 02 73 be 98 95 1d be b9 52 43 be 89 e6 09 be
       -0.23731573 -0.15389097 -0.19074525 -0.13466848
000070 fa 7b 23 be bf 77 9e be 29 6e 40 be 51 5e 2f be
       -0.15965262 -0.30950734 -0.18792023 -0.17125823
000080 e8 8c 63 bb d4 bc 6d bd 94 8e 95 be 53 80 39 be
       -0.0034721438 -0.05804141 -0.2921034 -0.18115358
000090 f2 b2 cd bd 4d ed 60 3c 28 a8 85 be a7 06 38 be
       -0.10043897 0.013728452 -0.26104856 -0.17971288
0000a0 b7 06 16 be ee ff d5 3d fc cd ed 3c f1 59 10 bd
       -0.14650999 0.10449205 0.029028885 -0.035242025
0000b0 1b 6f cb ba f4 09 d7 3d e5 cd 33 bc 84 ec eb bd
       -0.0015520783 0.10499945 -0.010974382 -0.11519721
0000c0 e2 a1 1e 3d c8 e1 d5 3d 5c 04 6d bc 1e cd ce 3c
       0.038728602 0.10443455 -0.014466371 0.025244292
0000d0 69 b2 b7 bd 7d af 6b bd 16 eb 19 3d be 40 20 3e
       -0.08969576 -0.057540406 0.03757771 0.15649697
0000e0 61 e9 04 be 92 b5 04 be 24 3a 04 3e c0 45 1e 3e
       -0.12979652 -0.12959889 0.12912804 0.15456295
0000f0 5a ca ac be c2 2e e3 bd 8b e4 59 3d 30 23 f2 3d
       -0.33748132 -0.11092903 0.05319647 0.11823118
000100 00 fa 20 bc be dc dd be 25 06 83 bd d7 79 cc 3d
       -0.00982523 -0.43332475 -0.06397656 0.099841766
000110 0c 39 69 3d d2 26 2d be a3 84 b7 bd 2d cf ec 3d
       0.05693917 -0.1690934 -0.08960845 0.11562953
000120 27 75 08 3e 0d 33 56 bd 2a b6 10 be 3d fb 0e 3e
       0.1332594 -0.05229478 -0.1413199 0.13963027
000130 5d 2e 4f bd d6 84 08 be 55 df b2 bd 83 30 21 3d
       -0.050581325 -0.13331923 -0.087340035 0.039352905
000140 5d f2 3a 3d e6 e4 87 bd ef be 14 be 37 68 15 3d
       0.045641292 -0.06635456 -0.1452596 0.03647634
000150 52 db 12 b9 87 22 f7 be c9 74 c3 be 70 08 1d 3d
       -0.00014005348 -0.4826853 -0.38175038 0.038338125
000160 02 6b bd 3d 9e 51 a7 bc 7c ee 03 bf 70 94 22 be
       0.09248926 -0.02042466 -0.51535773 -0.15876937
000170 32 d0 55 3d b2 5f f5 3c d4 fe 8f be 17 a1 99 bd
       0.052200504 0.029952858 -0.28124106 -0.075014286
000180 8a 53 80 3d c8 06 34 3e 42 2b 03 3e 4e 62 a9 3b
       0.06265934 0.17580712 0.1280947 0.0051691895
000190 ba 27 85 bd e6 30 1b be 3f 37 5f bd 89 e5 b1 bc
       -0.06501718 -0.15155372 -0.054496046 -0.021715896
0001a0 21 1b e6 be 7f 43 0c be 51 e1 8d bd 6d 0f e7 bd
       -0.44942573 -0.13697623 -0.06927741 -0.11282239
0001b0 12 53 65 be ed 2d 03 bf 41 93 39 ba 04 0f a7 3c
       -0.2239497 -0.5124195 -0.00070791325 0.020392902
0001c0 75 1f b2 bd 1e bc 30 be 1b 7d 94 bd 55 69 b0 3d
       -0.08697406 -0.17259261 -0.072504245 0.086138405
0001d0 75 69 31 bd 0b 35 37 3d bc 1b 26 3c 20 1a 5b 3c
       -0.043313462 0.04472832 0.010138448 0.013372928
0001e0 86 bd 4f be 63 ca f6 bd 75 4c 14 be fe 3e c2 bd
       -0.20287141 -0.12050321 -0.14482291 -0.09484671
0001f0 8a c7 87 bd a1 77 fd 3c a1 5c 08 3d df 7b 3d 3d
       -0.06629856 0.030940833 0.033291463 0.04626071
000200 cb ff e9 3d e4 62 55 be 1e bc 8c 3d c4 67 19 3e
       0.11425742 -0.20838505 0.06871818 0.1498099
000210 81 75 7d bd c0 25 fa bd bc e0 1f be 3b ac 4a 3e
       -0.06187964 -0.122142315 -0.15613073 0.19792263
000220 bf 81 38 be be 8a 2c be 77 f9 aa 3d d1 9f 32 bd
       -0.18018244 -0.16849801 0.08348363 -0.043609444
000230 37 d3 69 3e 1a 5c b1 be a9 2f 96 bd 98 59 e4 bd
       0.22834478 -0.3464058 -0.07333309 -0.11149901
000240 2a eb 75 bd 88 df ad bd ad 9c 83 be 93 7b f8 bd
       -0.060038723 -0.08489901 -0.25705472 -0.12132945
000250 72 33 db bd 4a ea 20 3d 1f 6a fb 3d 8e c6 94 3d
       -0.10703172 0.039285935 0.122761 0.07264434
000260 3a 66 54 bd a0 ea 0d 3d 49 f2 3a 3e 36 2a ac 3c
       -0.051855303 0.034647584 0.18256487 0.021016221
000270 50 5d 8d 3d d7 5c 14 3d 93 1a 5c bd ae 31 78 3e
       0.069025636 0.03622135 -0.05373628 0.24237701
000280 8b 21 cb 3d a4 a9 03 be b3 a3 02 3d 9c 21 8a bd
       0.09918507 -0.12857682 0.031894397 -0.06744692
000290 02 e5 39 3e 19 34 2b be 57 ef 25 be 50 16 c1 bc
       0.18153766 -0.16719092 -0.16204582 -0.02357021
0002a0 63 f9 ee 3d 9f 87 9a 3d fb 29 19 be 5b 8a 51 be
       0.116686605 0.07545399 -0.1495742 -0.20462935
0002b0 f2 10 1c be 8f 7a 4d 3e 38 b8 61 3e 51 75 1d bd
       -0.15240839 0.20066284 0.2204293 -0.03844196
0002c0 85 74 9d 3d 5c 96 01 3c ce 35 b2 bc d0 e8 75 bb
       0.0768824 0.007909384 -0.021754172 -0.00375228
0002d0 9f 49 13 be 91 95 5e 3c 5f d3 19 be 56 b3 69 be
       -0.14383553 0.013585464 -0.15022038 -0.22822317
0002e0 2e 4d 6e bd ed be e5 3b b0 6d 55 be 4b 8f a1 bd
       -0.058179073 0.0070112855 -0.20842624 -0.07888659
0002f0 5b 12 cd be 18 6e 29 bd 1b 42 ae bc 5d 99 1a bd
       -0.40053067 -0.04136476 -0.021271756 -0.037743915
000300 21 65 66 be 9c c6 95 be a0 80 de 3c 7d a4 8f be
       -0.22499515 -0.2925309 0.027160943 -0.28055182
000310 1c 76 fa bd af fb 0c be 4d b3 91 be 82 05 ab 3d
       -0.12229559 -0.13767885 -0.28457108 0.0835066
000320 00 08 48 be 62 27 08 bd 95 e4 8b bd 63 a8 d9 3c
       -0.19534302 -0.033240683 -0.06830708 0.02656955
000330 e0 30 a6 3d 1d 0f 3d 3c 31 8f 92 bc ef d2 c0 bc
       0.08114791 0.011539248 -0.017890545 -0.023538081
000340 ce 76 de 3c d0 fe 1d be 21 45 5b 3c 17 89 74 3d
       0.02715626 -0.15429235 0.013383181 0.05970105
000350 42 33 8b 3c e4 b1 46 bd b8 10 af bd 65 4f de 3d
       0.016992215 -0.048509493 -0.08548111 0.10854987
000360 b1 b1 8f 3d 42 ea a8 3d de e0 63 be 6e e0 cb 3d
       0.07016314 0.08247806 -0.22253749 0.09954916
000370 22 16 56 3d f4 2b 9d 3d 51 fe f4 3c d3 67 f8 bd
       0.0522672 0.07674399 0.029906424 -0.12129178
000380 de 88 32 bd 25 d8 cb bd 2a 4d 05 bd b0 99 ea bc
       -0.043587558 -0.09953336 -0.032544293 -0.028637737
000390 f4 24 4d 3d 9e d3 34 bd 05 d1 a0 3d f4 08 1b 3e
       0.05008407 -0.044147126 0.07852367 0.15140134
0003a0 92 a7 82 bd 43 6d 9e bd 7f c2 81 be 62 d7 59 3e
       -0.06379618 -0.07735684 -0.253437 0.21273568
0003b0 8f 7e 05 3e 98 b3 f2 3d 28 4d f6 bd 1a df cb be
       0.1303656 0.11850661 -0.12026435 -0.3981865
0003c0 13 2e 00 3e 63 13 35 3c 44 90 4f 3b bc cb f1 bd
       0.12517576 0.011051985 0.0031671682 -0.118064374
0003d0 a9 67 8a be 6a 27 05 bc df 28 33 be 9e 92 23 be
       -0.2703221 -0.008127073 -0.1749606 -0.15973899
0003e0 c2 ca c1 be ba cb cd be d6 c5 96 3d 6c 7f 2e 3d
       -0.37850004 -0.40194494 0.07361953 0.042601988
0003f0 41 59 da bd 45 ce 51 be 56 fa 76 3d 2d 9a bf bd
       -0.10661555 -0.20488842 0.060297333 -0.093555786

conv5.conv.weight f4 [120, 16, 5, 5]
000000 e4 f9 87 3c 2c 80 d4 bd 59 ed 02 3e 13 b6 ac 3d
       0.01659865 -0.10376009 0.12785853 0.084331654
000010 b2 fa 0f be 15 f6 52 be 42 fb 51 be 2c 6c e9 bd
       -0.14060476 -0.20601685 -0.20506003 -0.11397585
000020 0e 48 98 be 61 5b 1f bf 3f e5 25 bd 5f cc a8 be
       -0.29742473 -0.6224881 -0.04050183 -0.32968423
000030 e1 bd 8b bd 56 03 ac be 97 36 c2 be 12 f7 80 bd
       -0.06823326 -0.33596295 -0.37932274 -0.06297125
000040 92 ad bd bd 6a 92 49 bc f2 1c fe 3d 8c 79 cd 3d
       -0.092616215 -0.012302974 0.12407865 0.10032949
000050 3f be 05 3e ba fa 92 bd a1 a1 ca bd 24 c0 42 3c
       0.13060854 -0.071767285 -0.098941095 0.01188663
000060 6e 01 13 3e a8 a5 5c be ae 16 84 3d c8 f2 a7 3c
       0.14356014 -0.21547568 0.06449638 0.02050151
000070 9c c4 06 3d 54 39 07 3e ab a7 e5 3d 6d ec 83 3e
       0.032902345 0.13205463 0.11213621 0.25766316
000080 31 b8 2c be 46 6a b4 bd 94 6d b6 3b c1 17 ca bd
       -0.16867138 -0.088093325 0.005567262 -0.09867812
000090 17 88 81 bd 57 9f 08 3e ca cf 6c 3d 53 bd 56 be
       -0.06324785 0.13342033 0.05781535 -0.20970659
0000a0 f4 8e ef bd 59 ff c0 bd 2b de cf bc cd a8 46 bd
       -0.11697188 -0.09423704 -0.025374493 -0.048500825
0000b0 59 2f 8d be 10 3e b0 3b 8b aa 00 3e 1b 71 53 3d
       -0.27575186 0.005378492 0.12565057 0.051621538
0000c0 d9 14 be 3c fa 89 76 bd 31 36 5f bd b6 1f e6 bb
       0.0232033 -0.06019018 -0.05449504 -0.007022823
0000d0 ae 93 df 3d 8a 22 6a be b5 57 1a be 68 05 d6 bd
       0.109168395 -0.22864738 -0.1507252 -0.1045025
0000e0 de dd 6a 3c 8e 9f 74 3e e9 28 82 3e e5 cd 21 3e
       0.014335124 0.2388899 0.25421837 0.15801199
0000f0 48 07 38 be 65 e1 dd bd c6 ec 91 3d ca 25 f8 3d
       -0.17971528 -0.10834006 0.07125239 0.12116583
000100 d3 2e b2 3c 77 32 89 be ef 64 7e bd 95 26 62 bc
       0.021750843 -0.26796314 -0.062107977 -0.013803144
000110 9e e1 a4 bd 87 2b c1 be 8d 26 f1 bd b6 c6 55 be
       -0.080508456 -0.3772852 -0.11774931 -0.20876583
000120 13 f3 11 be de b5 70 be 2a e9 07 bf 87 58 97 3d
       -0.14252882 -0.23506877 -0.53090155 0.07389932
000130 95 b5 4d bb 23 a8 49 3d 5e 28 20 3e 63 25 42 3e
       -0.003138875 0.049232613 0.15640399 0.18959574
000140 e2 3a 19 3d 26 07 16 be 1a d4 21 bc 65 57 c3 3d
       0.03740967 -0.14651164 -0.009877229 0.095381536
000150 52 54 4f 3d 41 ab 1c 3e 7c 6a b9 3d 78 65 80 bb
       0.050617523 0.15299703 0.090535134 -0.003918346
000160 34 10 c6 bd 88 9e a3 bd 7c 8f 6e 3e 87 18 0f 3e
       -0.09671059 -0.07989222 0.23296922 0.139742
000170 07 dd 18 bd a3 6e 00 be c3 1d 8a 3d d5 ea 0e bd
       -0.037320163 -0.12542205 0.06743958 -0.034891922
000180 50 c2 86 bd 2b 79 97 bd 04 17 9d 3d 09 f1 9c 3d
       -0.06580031 -0.07396158 0.076704055 0.07663161
000190 91 fc 15 3e 17 50 a9 3e 0d ed a3 bc a2 27 cf be
       0.14647128 0.33068916 -0.020010496 -0.40459925
0001a0 29 6f 68 be dc 24 ea 3d 4c c2 69 3d 8c 54 05 3e
       -0.22698654 0.114328116 0.05707006 0.13020533
0001b0 df 6c 5a be f7 cf ce bd a4 c8 0e be cf 38 26 3e
       -0.21330594 -0.1009826 -0.13943726 0.16232608
0001c0 7a ca 1e bc e9 df 65 bb 61 60 99 3d e3 91 47 3c
       -0.009691829 -0.0035076088 0.07489086 0.012180778
0001d0 9d cc 06 be 94 5b ba bd ad 3e 48 3c 82 d3 7b 3d
       -0.13163991 -0.090994984 0.012221974 0.061481006
0001e0 9e c4 f2 bc d3 73 e4 3b d8 ff 84 be a8 64 89 be
       -0.02963477 0.006971815 -0.25976443 -0.26834607
0001f0 49 28 1d be 23 f5 34 be 88 ee 64 be 5c a5 8a be
       -0.15347399 -0.17671637 -0.22356617 -0.27079284
000200 c7 47 cd be 28 ef 2f be 0e df 15 be 5a 52 3d 3d
       -0.40093824 -0.17181075 -0.1463587 0.046221115
000210 df 77 d3 3d 61 63 7e be 2b 24 df be 6a b4 78 bd
       0.10325598 -0.24842598 -0.4358228 -0.06071893
000220 a1 bf 4c be db 62 63 3e 6d ee 35 3e 88 1d 2c be
       -0.19994976 0.22205679 0.17766733 -0.1680814
000230 ee 69 c3 bc bf 83 3c be 5c 98 39 3e a2 34 1b 3d
       -0.023854222 -0.18409632 0.18124527 0.03789199
000240 fc e4 d5 3d 46 1c 10 3e f7 12 16 bd 24 01 a6 3c
       0.10444066 0.14073285 -0.03663918 0.020264216
000250 ff f3 1f bd 82 27 16 3e db 43 87 be 95 ff 81 3d
       -0.039051052 0.14663509 -0.26418957 0.063475765
000260 03 19 42 3c a3 b6 04 3e 9e 77 dd bd 30 f7 5d be
       0.011846784 0.12960295 -0.10813831 -0.21676326
000270 9b 89 e7 3d 86 02 97 3d 4b c1 13 3d eb 9e dd 3d
       0.11305543 0.07373528 0.03607301 0.10821327
000280 d6 59 4b 3e 82 cb b8 3c 37 88 86 3d 55 70 2b bd
       0.19858488 0.022557978 0.0656895 -0.041855175
000290 99 9e 51 3d 45 35 96 bc 5a 5c 9a 3c 18 aa 08 3c
       0.05117664 -0.018335948 0.018842865 0.008341335
0002a0 bb c4 0e 3d 9f 70 9e bd 3e dd 25 bd 87 49 15 3d
       0.034855586 -0.077363245 -0.040494196 0.036447074
0002b0 3c eb df 3d 46 55 13 3e 9c 99 2b be f3 1d 9a 3e
       0.10933539 0.14387998 -0.16757816 0.30100974
0002c0 5b 49 99 3d ee 4a 42 be f5 78 05 be 50 c1 46 be
       0.074846946 -0.18973896 -0.13034423 -0.1940968
0002d0 3f 37 3c be 14 b2 95 bc 81 96 7e be 54 0f e8 bd
       -0.1838045 -0.01827339 -0.248621 -0.113310486
0002e0 56 7a 27 bd 47 6f 0f be a1 ed 95 3a 38 70 2b bb
       -0.040888153 -0.14007293 0.0011438617 -0.0026159417
0002f0 fd 0a 1d bd a7 43 f6 3d 18 33 ba bd b9 7b 7b be
       -0.038340557 0.120246224 -0.090917766 -0.24558915
000300 7c da d7 bb 4a ad 86 3d 42 01 de 3d f8 b6 42 bc
       -0.0065873247 0.06576021 0.10840084 -0.011884443
000310 7c 46 46 bd 3c 0b cc bb 6f 96 81 39 37 2d c5 bd
       -0.048407063 -0.006226925 0.0002471688 -0.09627765
000320 6e 23 75 3d 07 9c 04 3e 01 b0 66 be 0d d8 5b be
       0.05984824 0.12950145 -0.22528078 -0.21469136
000330 b0 31 f5 bd 0a fc 37 be df 00 69 bd 2a 50 54 be
       -0.11972368 -0.17967239 -0.056885596 -0.20733705
000340 33 07 af 3d b6 3a 5f 3e 25 ad 11 be 63 5c 44 be
       0.08546295 0.2179974 -0.14226206 -0.19175868
000350 31 1e 61 3e 3e b6 00 3e 49 f0 8c 3e ca 73 11 be
       0.21984173 0.1256952 0.27527073 -0.14204326
000360 d9 00 35 bd 46 8c 64 bd 36 d4 16 3d e8 4d 9a 3d
       -0.04419026 -0.055797838 0.036823474 0.07534391
000370 bc c1 db bd 2c c2 06 3c 7d c6 1e 3e 90 1e 5e 3d
       -0.10730311 0.008225005 0.15505405 0.054228365
000380 e2 a8 07 3e 79 41 18 be 60 04 29 be 4a 2a 45 bc
       0.13248017 -0.14868726 -0.16505575 -0.012034008
000390 36 2e ef 3d 45 d8 67 3e 35 62 51 be bc 1b c1 3d
       0.11678736 0.22641094 -0.2044762 0.09429118
0003a0 1a f9 0f 3c 37 bd 9f 3d ac 5b 37 3e b4 f4 88 3d
       0.008787418 0.07799762 0.17906064 0.066872984
0003b0 63 57 af 3d 89 93 e5 3d 40 56 c7 bc 64 73 2d be
       0.085615896 0.11209781 -0.02433312 -0.1693855
0003c0 0a 1d 37 3e 3c b4 9d 3d f8 da 1e 3e 41 4c 6c bd
       0.17882171 0.077003926 0.15513217 -0.05768991
0003d0 d9 ca c3 be 6c b3 16 3e 41 da e4 3c 77 c5 6c be
       -0.38240698 0.14716882 0.027936103 -0.23122202
0003e0 27 92 7a be 0b ac b3 3d c3 8c 19 3e e0 33 87 3e
       -0.24469815 0.08773049 0.14995103 0.26406765
0003f0 e2 30 86 be 12 58 03 bf 16 19 0a bf b4 8d 2e 3d
       -0.2620917 -0.5130626 -0.5394453 0.042615607

fc6.fc.weight f4 [84, 120]
000000 0c 6b 72 3e ac 60 f1 3d 16 29 0a bd f0 c5 50 be
       0.23673648 0.11786017 -0.03373059 -0.20388007
000010 7b 2b 08 bd e5 9c ee 3d 2f 2d a0 3d bd a6 9d 3d
       -0.03324459 0.11651019 0.07821118 0.076978184
000020 d6 b6 9d bd f2 8b 16 bd dc c8 97 3d 83 1c 8f 3d
       -0.07700889 -0.036754556 0.07411358 0.0698786
000030 c2 65 de bd a0 cd d0 bc b1 1c 8d bd b2 84 94 bc
       -0.108592525 -0.025488675 -0.06890238 -0.01812968
000040 3a a1 a8 be 27 79 15 bd c7 3c c6 be 91 5b 09 be
       -0.32935506 -0.036492493 -0.38718244 -0.13413836
000050 d3 4a 33 3e 64 f9 a4 bd 89 bf 01 bd 33 87 bf bd
       0.17509012 -0.0805538 -0.031676803 -0.09351959
000060 be 42 79 bd 4f 28 0e 3e e3 7a 95 be 18 6c 29 3e
       -0.060854666 0.13882564 -0.29195318 0.1654514
000070 c6 85 ad bc ba ce 21 3d 91 55 2b 3d ab ac 2a 3e
       -0.021181952 0.03950379 0.04182965 0.1666743
000080 a9 cd 25 3d c3 7b 7a bd f3 53 24 bc 29 f7 06 3d
       0.040479336 -0.061153185 -0.010029781 0.032950554
000090 47 3c de 3d 65 2e 7d 3d df 4b 34 3e 8d 86 a6 bc
       0.10851341 0.061811823 0.17607068 -0.02032783
0000a0 5d 06 2e 3e bf 87 08 bb 69 0e b3 3d f8 ae 21 be
       0.16994615 -0.0020832864 0.08742983 -0.15789402
0000b0 99 3b 18 be 99 98 32 3e 1e db 1c 3e 04 96 11 be
       -0.14866485 0.17441024 0.15317962 -0.14217383
0000c0 2f 2a 12 be 8b 34 f1 bc e1 f3 aa bd 39 bf f1 bc
       -0.14273904 -0.029444 -0.083472975 -0.029510127
0000d0 3b 10 09 3e f4 9e 15 be cd 55 8a be 32 4e be bd
       0.13385098 -0.14611417 -0.27018586 -0.09292258
0000e0 ae d4 09 be a9 6c 56 3d 78 3e 43 3e ee 83 70 bc
       -0.13460037 0.05234972 0.19066799 -0.014679892
0000f0 ad c9 e9 bb e6 1b 87 be ab 91 2f be 61 f3 c2 bd
       -0.0071346373 -0.26388472 -0.17145412 -0.09519077
000100 37 d0 6c bd df 7f cf bd b4 24 80 3e 74 d1 c7 3e
       -0.057815757 -0.10131811 0.25028002 0.39026988
000110 6d db 54 be f4 ee c4 bd 52 6b c5 3c 46 15 02 be
       -0.2078683 -0.09615889 0.024099026 -0.12703428
000120 4c 8c 05 bf 68 9f c1 bd 24 25 f3 bc b8 4a d0 3c
       -0.521672 -0.094542325 -0.029680796 0.025426254
000130 38 c8 3b 3e 3a 70 9a 3c cd d5 a7 3d 03 c0 3d 3e
       0.18338096 0.018852342 0.08195076 0.18530278
000140 18 9d a0 bd f9 7c 39 3d ab 97 fc bc 73 1a c4 bc
       -0.07842463 0.0452852 -0.03083404 -0.023938393
000150 df 61 1f be 32 a0 93 3e 29 0e 28 3e 27 cc fc 3d
       -0.15564679 0.28833157 0.16411652 0.123436265
000160 3f 0a 35 3e cc 39 8a bb 86 d4 2e bc 41 23 c7 3d
       0.1767969 -0.0042183157 -0.010670787 0.09723521
000170 d9 5c a6 3d b7 b0 23 3d 8c 7a 08 3e 96 47 35 3e
       0.08123178 0.03996345 0.13327998 0.17703089
000180 ea c0 6e be 4a d0 37 3e de cb 11 bd a5 29 5c be
       -0.23315778 0.1795055 -0.035594814 -0.21500261
000190 9d 1e 1b be af 98 09 3e d0 22 64 3d 95 af 85 3d
       -0.15148397 0.1343715 0.055697262 0.0652763
0001a0 a4 e2 36 3d ec dd d4 bb 51 00 1b be 68 b5 78 be
       0.044649735 -0.0064961817 -0.1513684 -0.24287951
0001b0 49 bf 09 3e 8d 54 d5 3d cd 67 7f 3d 45 a7 e0 bd
       0.13451876 0.104165174 0.06235485 -0.10969404
0001c0 1c ae cf 3c af e8 3e 3d 71 9a f9 3d cd 3c 5b bc
       0.025351577 0.046608623 0.121876605 -0.013381195
0001d0 ba c5 09 3e 5d 51 a3 be ee b6 dc 3d a3 ef 6d 3b
       0.13454333 -0.31898013 0.107770786 0.0036306165
0001e0 39 cb fe 3d 52 0c c8 3d 3e c4 4b be 6e 3e 96 be
       0.124411054 0.09767975 -0.19899079 -0.29344505
0001f0 28 82 7c bd 3f 1c 30 be 79 8f 1e 3e 7f 5d 8f bc
       -0.061647564 -0.17198275 0.15484418 -0.017500637
000200 4c 76 47 3d 87 56 69 be d5 0a 55 bd e2 34 a3 bc
       0.0486968 -0.22786914 -0.052012283 -0.019922677
000210 d6 7a 3a be 98 77 ad bb e0 14 ac be ed 41 92 be
       -0.1821092 -0.0052937977 -0.33609676 -0.28565922
000220 02 ca 6a be 94 3c 25 3c 99 ce 15 be 92 28 9f be
       -0.22928622 0.010085244 -0.14629592 -0.3108564
000230 93 75 97 3c a4 88 c2 3e 5c d0 69 be 35 ff c7 bd
       0.018488681 0.37994874 -0.22833389 -0.09765474
000240 67 a0 05 be 7c 62 a0 bd f7 f9 1a bd 1b 18 03 be
       -0.1304947 -0.078312844 -0.03783604 -0.12802164
000250 9d ee 31 be 31 e8 8e 3d c4 35 5d be 0e f7 29 bc
       -0.1737618 0.06977881 -0.21602541 -0.010373844
000260 8f 8d aa b9 98 a8 39 3d 19 f8 90 3d 06 f8 8c 3d
       -0.00032530396 0.0453268 0.07078571 0.06883244
000270 8d c3 3c 3d 58 00 45 3d 4d 62 df 3d eb fc a3 bd
       0.04608493 0.04809603 0.10907421 -0.08007225
000280 f0 91 10 3e 16 0c 6f be ac 12 d3 3d 78 12 40 bd
       0.1411817 -0.23344454 0.10306296 -0.046892613
000290 c3 97 cb be 4f d5 20 3e 2e be 96 3d f6 06 39 bd
       -0.39764223 0.15706371 0.07360493 -0.045172654
0002a0 7d d1 9b bd a1 8c 84 3d a0 70 4b bd 83 a3 06 39
       -0.07608316 0.06472135 -0.049667954 0.00012840149
0002b0 bf 01 89 bd 3f 3e 7c bd 34 48 8f be 94 a3 4c be
       -0.06689786 -0.0615828 -0.27984774 -0.19984275
0002c0 03 c3 74 bd e5 ea fa bd 3e 8f 88 bd 3a b3 db bc
       -0.05975629 -0.12251834 -0.06667946 -0.02681886
0002d0 c9 51 c7 bd b9 8f 8c be 43 17 1b be c0 f8 45 bd
       -0.09732396 -0.27453402 -0.15145592 -0.04833293
0002e0 aa 34 23 be 59 1b 11 be 52 ff df bd b3 cf ff 3d
       -0.15938058 -0.14170589 -0.1093737 0.12490787
0002f0 bc a5 d2 bc c2 b2 04 bc 3e 9c 99 3d 0a e9 7f bd
       -0.025713794 -0.00809926 0.07500504 -0.062478103
000300 b3 cf a5 be f6 a9 5a 3d f7 54 24 3e ba df 12 3e
       -0.32385024 0.053384744 0.16048037 0.14343157
000310 fc 3c c1 3c c2 95 31 bd 58 17 65 3c fe 17 06 3d
       0.02358865 -0.04335571 0.013982616 0.032737724
000320 d1 4b 2d bd fe 58 ac 3b 19 a7 99 bd 5d b6 6d 3d
       -0.042308632 0.005259632 -0.075025745 0.058035243
000330 61 91 1c be 57 8d 41 bd 0c bb db bd 30 25 5c 3d
       -0.15289833 -0.047253933 -0.10729036 0.053746402
000340 83 1d 96 3d a3 f5 7a 3d 2a 07 fc bd 61 72 3e be
       0.07329848 0.061269414 -0.12306054 -0.1859832
000350 b9 ab a1 be 2b 41 6b 3c 98 04 94 3d b6 d5 73 3d
       -0.31576326 0.014358799 0.07227439 0.059529983
000360 fc e9 81 be 5b 7c 4d bd ed 66 6a bb e1 88 29 bd
       -0.25373828 -0.050167423 -0.0035766915 -0.041390304
000370 ba bc bc bb d1 0f 4c bd c3 5e 22 bd eb 37 00 be
       -0.0057598026 -0.04981977 -0.039641153 -0.12521331
000380 b8 07 2e be 82 68 9f bd dc fc 2c be 64 46 93 be
       -0.16995132 -0.07783605 -0.16893333 -0.2876464
000390 04 95 15 3e a0 e6 22 3e 31 e9 07 3d 99 e7 80 be
       0.14607626 0.15908289 0.033181373 -0.25176695
0003a0 fa 49 ac bc 16 1e 12 be e5 13 32 3e 32 d9 dd 3d
       -0.021031369 -0.1426929 0.17390402 0.10832442
0003b0 68 7d 5b be d8 d4 d3 be 7b a5 0f be 7a 71 11 be
       -0.21434557 -0.41373324 -0.1402797 -0.14203444
0003c0 b5 f5 4d 3c 71 e4 d4 3d 0d 21 8c 3c d2 f7 7d be
       0.012570788 0.10395134 0.017105604 -0.24801567
0003d0 60 53 e1 bd 46 96 bb 3d 74 69 48 3e 25 63 b6 bd
       -0.11002231 0.09159522 0.19571477 -0.08905629
0003e0 56 3d 2b 3c 39 9b b0 bd cc a5 31 3d b2 8e 8a 3d
       0.010451635 -0.08623356 0.043371007 0.06765498
0003f0 54 55 91 bd 4c a6 85 bc 7c 4c aa be ef a5 ba 3c
       -0.07096353 -0.016314648 -0.33261478 0.022784201

output.fc.weight f4 [10, 84]
000000 20 f9 b1 be 7c f7 b4 be 65 25 07 3d 5d c3 30 bd
       -0.3476038 -0.35345066 0.032994647 -0.043155063
000010 99 be b4 be 6b 37 be be fe b6 18 be d6 a0 05 3e
       -0.35301664 -0.37151656 -0.14913556 0.13049635
000020 4e a8 74 3c 7d 8f b4 be 03 b9 4f bd 13 4d 04 3d
       0.014932705 -0.35265723 -0.05071355 0.032300066
000030 db de 8b 3d 7d 64 d4 be 4d db 1d 3d 7a e4 13 be
       0.06829616 -0.41482916 0.03853922 -0.14442626
000040 1e cd c6 be e9 ac 18 bf 71 6e 73 be 2b 1f 0b be
       -0.38828367 -0.5963884 -0.23772599 -0.13586108
000050 e5 2f 8e 3c 80 76 88 3c 9b 89 ba be 6a 22 a0 bc
       0.017356822 0.016658068 -0.3643311 -0.01954766
000060 9f 9e 20 be a7 b7 62 be ef 06 d0 be 27 a6 06 3e
       -0.15685509 -0.2214037 -0.4063029 0.1314932
000070 e6 5c cf bd cf ba b4 3c 8e c4 de be 55 ed 42 3b
       -0.10125141 0.022061734 -0.43509334 0.0029743512
000080 74 d7 d5 3c 95 3c 63 bd 45 49 a0 be 47 23 9b be
       0.026103713 -0.055477697 -0.313059 -0.30300352
000090 9b e3 8b be 06 02 40 3d fc d8 48 be 2e c4 31 be
       -0.27322087 0.04687693 -0.19614023 -0.17359993
0000a0 1e f8 cd bc 1a ae c0 be 46 5f f4 3c 49 69 95 bd
       -0.025142726 -0.3763283 0.029830586 -0.07295472
0000b0 c3 48 26 bf d6 fc ad be f8 47 8b be 19 ca 3f be
       -0.64954776 -0.3398196 -0.27203345 -0.18729438
0000c0 75 0f ff bb 0e 46 9d bd 32 f0 58 bd 50 10 54 be
       -0.007783825 -0.076793775 -0.052963443 -0.20709348
0000d0 47 6b 49 be 4a 90 bc bd b3 a3 90 be dd 72 03 be
       -0.1966983 -0.092072085 -0.28249893 -0.12836786
0000e0 db aa 56 3b 59 bf 52 be cb 7e 17 be a9 8c f1 bc
       0.0032755646 -0.20580806 -0.14794461 -0.029486017
0000f0 4c 3a bb 3d 43 e8 53 bf 5f b7 d5 be 1a 9f 5b bc
       0.091419786 -0.8277628 -0.41741464 -0.013404632
000100 a8 7c 93 be a7 15 0f 3e 0d 38 5b be 21 4a 51 bd
       -0.28806043 0.13973103 -0.214081 -0.051096085
000110 d3 24 6e be 97 05 92 be e7 70 2e 3c b0 a7 8e be
       -0.23256235 -0.2851989 0.010647035 -0.2786231
000120 b2 0d b6 3d b9 67 e6 be 6b a6 51 be 18 11 47 bc
       0.08889331 -0.4500101 -0.2047364 -0.012150072
000130 6f c0 f5 be c4 94 fb bd 7d 35 fa be e2 0f 52 bd
       -0.47998378 -0.12284234 -0.48868933 -0.05128468
000140 f5 d1 81 3d f4 56 83 be 96 14 98 be b9 e4 35 bf
       0.06338874 -0.25652277 -0.29703206 -0.7105213
000150 c9 0a ce 3d 43 88 cc bd ec 23 1f be 96 77 36 bf
       0.10060651 -0.09986927 -0.15541047 -0.71276224
000160 42 3b 64 be 7c 78 c0 be 0b 4b ce be 6b 65 41 be
       -0.2228823 -0.37591922 -0.40291628 -0.18886344
000170 da d6 ff bc 41 8d 93 be 2c 08 0b 3e c4 bf ba bd
       -0.031230379 -0.28818706 0.13577336 -0.09118608
000180 b0 36 d2 3c 46 15 cd 3d d5 bc a1 3d e2 ee 7e 3d
       0.025660843 0.10013823 0.07897345 0.062239535
000190 7c b0 54 3d 2c 59 19 3c fd 17 83 be 13 d3 92 be
       0.05192612 0.009359639 -0.2560424 -0.28676662
0001a0 18 c6 c2 3c 4d 89 db bc a9 32 59 bd d7 90 a9 be
       0.0237761 -0.026798869 -0.05302683 -0.33118317
0001b0 3f 72 91 bd 1a dc 91 be e9 53 32 be 2a a0 4f be
       -0.07101869 -0.28488237 -0.17414822 -0.20275941
0001c0 5d 77 d7 bd 9a 9a b8 be 8c 92 7a be ef 99 08 bf
       -0.105208136 -0.36055452 -0.24469966 -0.53359884
0001d0 24 a6 6a bd 28 16 44 bf 1d a7 89 be 6c cd 94 bd
       -0.05728735 -0.7659631 -0.2688531 -0.072657436
0001e0 b0 17 ce bd fb a5 83 be 58 4f 18 3d 1e 68 df bc
       -0.10063112 -0.2571257 0.037185043 -0.027271327
0001f0 ca 83 e9 bc 75 80 86 3d 8a ad c8 3d 26 de e9 3d
       -0.028505225 0.0656747 0.09798725 0.114193246
000200 f3 28 8c be c8 1b 50 be 3d 8c 25 be fc 65 56 be
       -0.27374992 -0.20323098 -0.16166778 -0.20937341
000210 57 89 22 bf 0d 48 c3 be d8 3e 5d 3d be ee 30 be
       -0.63490814 -0.38140908 0.05401501 -0.17278573
000220 31 a6 10 3e ba 9d a7 bb cf 7c a7 be 8f 33 91 be
       0.14125897 -0.005115238 -0.3271241 -0.2835965
000230 44 42 53 be 89 ed ec be 7b 25 ec be 0e a1 a9 be
       -0.20630747 -0.46274975 -0.46122345 -0.33130687
000240 dd 4e 1d be 35 74 65 be b7 08 d7 3c 2b ff 27 3e
       -0.15362115 -0.2240761 0.026249273 0.16405933
000250 ca c1 2a be a7 7f 16 bf e6 7f 87 be df e2 35 bf
       -0.16675487 -0.5878853 -0.26464766 -0.710493
000260 fb e1 41 be 75 52 73 be 18 3f 48 be 59 cc 9d 3d
       -0.18933861 -0.23761924 -0.19555318 0.07704992
000270 b8 f9 58 3d b4 fb 33 3e 92 99 aa bd df aa bf bd
       0.052972525 0.17576486 -0.083300725 -0.09358763
000280 ec 5a ae bd 6d 5c 0a 3e 61 0b 84 be f8 92 8f be
       -0.08513436 0.1351182 -0.2578993 -0.28041816
000290 e0 06 0d be 6a ec 6d bb fd 5e 8a 3d c2 66 1e 3e
       -0.13772154 -0.0036304244 0.06756399 0.15468886
0002a0 c3 03 26 be 3a f3 82 be b2 13 f6 bc d5 14 48 bd
       -0.16212372 -0.25576192 -0.030038688 -0.048847992
0002b0 a0 c8 de 3d a2 3f 26 be 3a fb 0c bf 12 52 3d bd
       0.1087811 -0.16235211 -0.5507084 -0.046220846
0002c0 21 4a 09 bf bb c2 46 be 75 dd 9b 3d 23 52 ef bd
       -0.53628737 -0.19410221 0.07610599 -0.11685588
0002d0 e4 b8 35 be 05 72 60 be 15 02 59 be be 88 8c be
       -0.17746311 -0.21918495 -0.211922 -0.27448076
0002e0 d1 21 2f be ea f8 90 3c cd 83 9c be 15 57 ac be
       -0.17102744 0.017696816 -0.30569306 -0.33660188
0002f0 77 f3 12 3e 5c ac 55 be a1 b4 04 3e 6b 33 84 be
       0.14350687 -0.20866531 0.1295953 -0.2582048
000300 57 2e b9 be ab f8 9b be f8 88 57 3d 8a 20 a9 be
       -0.36168167 -0.30463156 0.052620858 -0.33032638
000310 f6 fc 9e be 04 4e 45 be 48 82 90 be 28 a4 23 bd
       -0.3105237 -0.19268042 -0.28224397 -0.039951473
000320 4a 33 88 bd 0b 4b 0f bf 81 2c 16 3e de 98 45 be
       -0.066504076 -0.5597388 0.14665414 -0.19296595
000330 cd 68 5b be 3c c6 fb 3d 05 f2 31 be 52 1c 3e 3d
       -0.21426697 0.122936696 -0.1737748 0.046413727
000340 5d 5e 56 bd 16 ac 8b 3d 1c 96 a4 be 63 e4 8a be
       -0.052336086 0.06819932 -0.32145774 -0.2712737
000350 fc 84 94 be 02 cd 8b be df 04 46 bf 17 ef fe be
       -0.2900771 -0.27304846 -0.7735118 -0.49791786
000360 8d 55 ed be 56 3f ee bd f8 21 26 bb 0b 87 b1 3d
       -0.46354333 -0.11633174 -0.0025349837 0.086683355
000370 dd 20 57 be 74 a4 00 3e d7 84 a7 bc 36 f2 03 bd
       -0.2100863 0.12562734 -0.020449085 -0.032213412
000380 f0 50 29 be dd c0 b2 bd 77 54 6b be 22 e9 72 3c
       -0.16534781 -0.08728192 -0.2298144 0.014826091
000390 57 c3 d5 3b de 05 82 3c 69 d2 00 be fc 21 c1 be
       0.0065235305 0.015871938 -0.12580265 -0.3772124
0003a0 57 4a a7 bc 51 80 6c be 7c 6e 85 be 67 aa 07 bd
       -0.02042119 -0.23095824 -0.26060855 -0.033121493
0003b0 93 6f 94 3d c9 52 e7 be 53 57 80 bc 96 89 f8 3d
       0.072478436 -0.45180348 -0.01566664 0.121356174
0003c0 28 04 16 3d d0 9e f1 bc 84 1a fa be 8c 0b e2 bd
       0.036625057 -0.029494673 -0.48848355 -0.11037359
0003d0 53 7d 4b be c3 58 a3 bd 3b 90 06 be cf 96 20 be
       -0.19872026 -0.07975914 -0.13140957 -0.15682529
0003e0 e2 fa 82 bb aa fa a8 3b 0d d6 4b be 3f 99 0b bd
       -0.0039971927 0.0051568346 -0.19905873 -0.034081694
0003f0 f3 d5 c6 3d ad 49 00 3d db ac 4f be 30 7e 82 be
       0.09708776 0.031320263 -0.20280783 -0.25486898
