lenet_with_bias.pt (torch, 248984 bytes, 6 tensors)

conv1.conv.weight f4 [6, 1, 5, 5]
-0.10189837 -0.018246384 -0.017866515 0.12032526 0.06804156 -0.120960325 0.041723993 0.11586056
0.13779432 0.015273549 -0.098733805 -0.07889684 0.08762406 0.1269126 -0.04902703 -0.013938128
0.024460457 0.0796471 0.052403245 -0.099506915 0.04364492 -0.10781305 -0.030669369 0.15218127
-0.11938666 0.1312719 -0.15033805 -0.06553374 -0.12504344 -0.032250993 0.12473606 -0.1694782
0.122472845 -0.13401903 -0.24280936 -0.17875193 0.11056269 0.15680648 -0.2702287 -0.29435265
0.023144208 -0.060097616 0.09516411 0.07585378 0.27944762 0.010911795 0.100579076 -0.058745425
0.24535818 0.12613957 0.20148382 -0.014159808 0.33278933 0.28742704 0.08348647 -0.06237564
-0.180436 -0.10796622 -0.10170373 0.08233068 0.108073644 -0.07375873 -0.15723254 -0.16307843
7.2978786e-05 -0.084084034 0.04811121 -0.096455246 -0.1572445 -0.13419731 -0.027359392 0.04864882
-0.004498762 0.06785942 0.0591766 0.1597804 0.012653979 0.011504022 -0.08024201 0.16367677
0.1848053 0.0831205 -0.15113269 -0.16148601 -0.090494975 0.083939545 0.083186276 -0.14620541
0.10465258 -0.048679017 0.19942674 -0.13173762 0.023135906 -0.10139632 -0.094639376 0.16768177
0.028905526 -0.08804865 0.058523882 -0.010283725 -0.21058062 0.040356044 0.1395447 0.070053615
0.16313079 0.15928784 0.39054403 -0.01661677 0.19545124 -0.080798395 0.26533505 0.0925896
-0.0075892983 -0.055720072 -0.18352306 0.16173851 -0.31530645 -0.2618434 -0.27503708 -0.053069554
-0.015591218 -0.18659692 -0.01075132 0.11471251 0.18982135 0.15071738 0.11691537 0.012814093
0.050642908 -0.03411226 -0.09288921 0.03289747 -0.14578052 -0.26595482 0.10514294 0.13905509
0.3387697 0.33183953 -0.19996817 -0.13445355 -0.12443608 0.19436032 0.28947827 0.23055974
-0.18872863 -0.14944935 -0.34881675 0.111250006 0.11177294 0.06749616
00000000: 18b0 d0bd 7179 95bc cc5c 92bc 176d f63d
00000010: 6059 8b3d 0cba f7bd c7e6 2a3d 4d48 ed3d
00000020: f419 0d3e e83d 7a3c f334 cabd ab94 a1bd
00000030: 3e74 b33d 60f5 013e 91d0 48bd bf5c 64bc
00000040: 4c61 c83c 051e a33d c9a4 563d 48ca cbbd
00000050: 04c5 323d 17cd dcbd 543e fbbc 68d5 1b3e
00000060: fe80 f4bd 246c 063e 38f2 19be 8e36 86bd
00000070: 630b 00be 9e19 04bd 9f75 ff3d b18b 2dbe
00000080: 0bd3 fa3d 493c 09be 04a3 78be bf0a 37be
00000090: b16e e23d e191 203e 6b5b 8abe 64b5 96be
000000a0: ec98 bd3c eb28 76bd 67e5 c23d 3a59 9b3d
000000b0: c213 8f3e 63c7 323c 67fc cd3d 0b9f 70bd
000000c0: 2d3f 7b3e bb2a 013e c651 4e3e 8afe 67bc
000000d0: 5d63 aa3e a329 933e f4fa aa3d 997d 7fbd
000000e0: 37c4 38be 651d ddbd 0c4a d0bd fd9c a83d
000000f0: b755 dd3d d10e 97bd 9101 21be 08fe 26be
00000100: 300c 9938 4034 acbd 4310 453d 548a c5bd
00000110: b404 21be 056b 09be ce20 e0bc fc43 473d
00000120: 5a6a 93bb e1f9 8a3d 2a63 723d 799d 233e
00000130: a252 4f3c 5e7b 3c3c ec55 a4bd e29a 273e
00000140: 9a3d 3d3e 153b aa3d 87c2 1abe 975c 25be
00000150: 6e55 b9bd 7fe8 ab3d 915d aa3d dfb6 15be
00000160: 1854 d63d a663 47bd 8636 4c3e 3ae6 06be
00000170: 8387 bd3c e0a8 cfbd 4ad2 c1bd c5b4 2b3e
00000180: 48cb ec3c da52 b4bd bdb6 6f3d 127d 28bc
00000190: 72a2 57be 614c 253d cee4 0e3e 4578 8f3d
000001a0: c20b 273e 5a1c 233e 63f5 c73e e41f 88bc
000001b0: 5f24 483e a179 a5bd ffd9 873e 9e9f bd3d
000001c0: a6af f8bb bb3a 64bd 78ed 3bbe c89e 253e
000001d0: d96f a1be 5710 86be a9d1 8cbe 765f 59bd
000001e0: 4f72 7fbc 4313 3fbe 4e26 30bc 64ee ea3d
000001f0: 8760 423e a855 1a3e 5371 ef3d 34f2 513c
00000200: f06e 4f3d 4cb9 0bbd b33c bebd 7fbf 063d
00000210: 7d47 15be 3b2b 88be 2f55 d73d 7564 0e3e
00000220: 3973 ad3e dfe6 a93e 75c4 4cbe 31ae 09be
00000230: 58d8 febd 6406 473e 7f36 943e da17 6c3e
00000240: 1442 41be 4009 19be 1c98 b2be 0bd7 e33d
00000250: 36e9 e43d 6d3b 8a3d

conv3.conv.weight f4 [16, 6, 5, 5]
0.056002796 0.21929449 -0.04652539 -0.0137533145 -0.056147657 0.19164643 -0.040940423 0.042070396
0.10581371 -0.057997964 -0.27133203 0.192051 0.16698898 -0.016180858 -0.35317025 -0.25530985
0.08015218 0.14703345 0.08170034 -0.20742376 0.080016956 0.19568855 0.23536178 0.20564705
-0.24436575 -0.14081725 0.014984654 -0.032824565 -0.013365032 0.025851661 0.013010241 0.06630084
0.0401181 0.020293748 0.17705595 0.09979316 -0.036040734 -0.44420487 -0.14270686 0.120367676
-0.00061041873 -0.19494157 -0.628329 -0.19716729 -0.12605862 0.2999529 0.00548153 -0.22340626
0.0730616 0.14251845 -0.16245028 -0.01588831 0.085537635 -0.04154766 -0.31722176 -0.04286634
-0.1699244 -0.10496532 -0.46050924 -0.109127514 -0.050203413 -0.052516874 -0.1332485 -0.34978563
-0.02205523 -0.19319667 -0.054967184 -0.23839702 -0.49288318 0.057961777 0.018499158 -0.23653083
-0.22826388 -0.21867608 0.07826117 -0.096313275 0.0115974415 -0.5169277 -0.041582327 0.15497221
0.07102221 0.14089131 -0.15558875 -0.058146574 0.21821782 0.10722304 0.16316764 -0.31405866
0.13390078 0.053213015 0.13702966 0.07859928 0.011403201 0.08003923 0.08198819 0.077966936
-0.40334615 0.11446148 0.227701 0.047020677 -0.22755492 0.05264852 0.1605925 -0.21323077
-0.0504359 -0.12616968 0.009795021 -0.12723269 -0.18831003 0.18644923 0.044993266 -0.30613947
-0.79254335 0.18998651 -0.052109793 0.1264424 -0.11224083 -0.3642258 0.0018539302 -0.017050602
-0.21991359 -0.52162296 -0.1679024 0.02346826 -0.01133691 -0.14167276 -0.31695232 -0.27409214
-0.039777253 -0.09409569 -0.061515782 -0.27832893 -0.0060237306 0.10766623 0.042112093 0.19663537
-0.20496659 -0.26778513 0.026713105 -0.09597709 -0.020630155 -0.10871744 -0.26501513 -0.03838014
-0.034326196 0.043853667 -0.19531842 0.07139827 0.0923197 0.18203019 0.35152528 0.2033018
0.09904191 -0.061795928 -0.37801567 0.028589826 -0.038997434 0.20389147 -0.043587234 -0.23616834
-0.21719061 0.012225592 0.25781167 -0.17661765 -0.20371017 -0.34379846 0.020394707 0.053233977
-0.1744694 -0.28218108 -0.37470904 0.015179947 0.04649485 -0.11107949 -0.5659744 -0.6712657
-0.37993947 -0.08500131 -0.04797808 0.09406517 -0.47380337 -0.32486075 -0.100419365 0.026919577
-0.02126382 0.1307426 -0.29903647 -0.19687961 0.13434742 -0.16797563 0.12247476 -0.27139923
-0.28973988 -0.027295202 -0.12075302 0.093787186 -0.20459145 -0.146958 -0.10094383 -0.16208878
0.023264384 -0.05432566 -0.07865053 -0.15971664 0.012448066 -0.015072004 0.12298456 0.04265173
-0.057484817 0.19807212 0.041629434 0.090301156 -0.05496764 0.06194098 0.17422159 -0.24442638
-0.097205445 -0.10030634 -0.34682214 0.09944874 0.17333357 0.06880542 -0.19554968 -0.0016559554
0.015224415 -0.029385278 -0.2929903 0.13752942 0.10515492 -0.092260726 0.012421073 -0.21154803
0.0050531444 0.2704087 -0.08799963 0.05191814 -0.27671403 0.118026316 0.2441701 -0.12479843
-0.050111268 -0.6960929 -0.0022885222 0.19608374 -0.010408275 0.06416421 -0.4428247 -0.026619155
0.20089173 0.17756501 0.033150315 0.05713015 -0.13920613 0.026075682 0.047454264 0.09612145
00000000: 3063 653d bc8e 603e 6891 3ebd 9555 61bc
00000010: 16fb 65bd f63e 443e 25b1 27bd 0252 2c3d
00000020: dcb4 d83d 468f 6dbd 08ec 8abe 04a9 443e
00000030: 29ff 2a3e b88d 84bc bbd2 b4be f9b7 82be
00000040: d326 a43d f08f 163e 8252 a73d e566 54be
00000050: eedf a33d 9462 483e ae02 713e 2495 523e
00000060: 043b 7abe 6632 10be 3282 753c 0d73 06bd
00000070: 02f9 5abc ddc6 d33c e828 553c bcc8 873d
00000080: e052 243d 133f a63c 284e 353e 5b60 cc3d
00000090: 739f 13bd d26e e3be bf21 12be 5483 f63d
000000a0: 8204 20ba c39e 47be 2bda 20bf 39e6 49be
000000b0: 8315 01be 6d93 993e 689e b33b 9cc4 64be
000000c0: 52a1 953d 5bf0 113e 5e59 26be 3328 82bc
000000d0: 5b2e af3d e12d 2abd e46a a2be 9e94 2fbd
000000e0: a900 2ebe 0ff8 d6bd dec7 ebbe 3f7e dfbd
000000f0: 18a2 4dbd ef1b 57bd 4b72 08be 1a17 b3be
00000100: 2bad b4bc 59d5 45be 4525 61bd 591e 74be
00000110: 2f5b fcbe 5469 6d3d 8c8b 973c 2335 72be
00000120: 02be 69be 9fec 5fbe 6447 a03d e53f c5bd
00000130: 3203 3e3c 6055 04bf 3b52 2abd 09b1 1e3e
00000140: 1874 913d d045 103e a852 1fbe 1a2b 6ebd
00000150: 7e74 5f3e c197 db3d 6b15 273e 4ccc a0be
00000160: 491d 093e e4f5 593d 8151 0c3e a9f8 a03d
00000170: 7ed4 3a3c 9ceb a33d 6de9 a73d 21ad 9f3d
00000180: 6383 cebe c86a ea3d 732a 693e c198 403d
00000190: 2804 69be f9a5 573d 5c72 243e 2b59 5abe
000001a0: e095 4ebd a032 01be 4c7b 203c 4949 02be
000001b0: 58d4 40be 8cec 3e3e dc4a 383d 50be 9cbe
000001c0: 1fe4 4abf d38b 423e 1471 55bd 1e7a 013e
000001d0: 85de e5bd ce7b babe 93ff f23a b4ad 8bbc
000001e0: 0731 61be 1589 05bf 9bee 2bbe 8240 c03c
000001f0: 72be 39bc aa12 11be 9347 a2be ce55 8cbe
00000200: 79ed 22bd 3eb5 c0bd f9f7 7bbd 2181 8ebe
00000210: b762 c5bb 1d80 dc3d bb7d 2c3d c85a 493e
00000220: c3e2 51be 221b 89be 71d5 da3c a38f c4bd
00000230: 9200 a9bc 40a7 debd 10b0 87be 7e34 1dbd
00000240: a099 0cbd e79f 333d 8d01 48be 4239 923d
00000250: 1c12 bd3d 1f66 3a3e 1ffb b33e 592e 503e
00000260: 7cd6 ca3d ba1d 7dbd 458b c1be 3635 ea3c
00000270: c6bb 1fbd edc8 503e 8788 32bd 1dd6 71be
00000280: 3767 5ebe d94d 483c e4ff 833e 42db 34be
00000290: 6699 50be 5a06 b0be cd12 a73c df0b 5a3d
000002a0: 1ba8 32be 0a7a 90be ddd9 bfbe 50b5 783c
000002b0: 6271 3e3d a57d e3bd b3e3 10bf 12d8 2bbf
000002c0: 6d87 c2be 2b15 aebd aa84 44bd 3da5 c03d
000002d0: 5b96 f2be 2654 a6be aba8 cdbd 7286 dc3c
000002e0: 7631 aebc 63e1 053e 4f1b 99be cf9a 49be
000002f0: 5f92 093e ce01 2cbe 0cd4 fa3d d7f4 8abe
00000300: c958 94be 309a dfbc 5c4d f7bd 7f13 c03d
00000310: 6c80 51be 287c 16be a4bb cebd 9afa 25be
00000320: f394 be3c 9584 5ebd 8713 a1bd c28c 23be
00000330: f9f2 4b3c 91f0 76bc 54df fb3d 95b3 2e3d
00000340: 3375 6bbd 6bd3 4a3e a083 2a3d d0ef b83d
00000350: c025 61bd d3b5 7d3d 2567 323e e94a 7abe
00000360: a613 c7bd 696d cdbd ac92 b1be c8ab cb3d
00000370: 5b7e 313e dbe9 8c3d 2d3e 48be a50c d9ba
00000380: d36f 793c 65b9 f0bc d302 96be 83d4 0c3e
00000390: 765b d73d 31f3 bcbd c281 4b3c 0ca0 58be
000003a0: d994 a53b 0273 8a3e 2639 b4bd 1ea8 543d
000003b0: 76ad 8dbe c8b7 f13d ba07 7a3e 5296 ffbd
000003c0: 7941 4dbd 2533 32bf 08fb 15bb 2dca 483e
000003d0: 7887 2abc 8668 833d ebb9 e2be 6a10 dabc
000003e0: 90b6 4d3e 9ad3 353e a0c8 073d 4e01 6a3d
000003f0: 0d8c 0ebe ab9c d53c 675f 423d 53db c43d

conv5.conv.weight f4 [120, 16, 5, 5]
-0.030814663 -0.021026377 0.00024973677 -0.013359416 -0.02612786 -0.034345716 -0.021908566 -0.035385925
0.0011671478 0.00829042 -0.012986513 0.014911056 -0.0013567818 0.011640605 -0.043069277 -0.052507427
0.0033803314 -0.08322383 -0.041882697 -0.009711288 -0.039507303 -0.029754192 -0.06558591 -0.022112057
-0.056202535 -0.059809037 0.0011011688 0.01732653 -0.032517776 0.008095242 -0.033011205 -0.029316459
0.0012586452 -0.048570402 -0.006313136 -0.011917784 0.004845787 -0.056930237 0.008929606 -0.03605793
-0.046842318 0.00019245775 -0.045913883 -0.05253879 0.014275943 0.03286877 -0.023679527 0.024734672
0.010065464 -0.060502697 0.02485048 -0.020165682 0.008501658 0.027491145 0.024918424 -0.060426038
-0.022971036 0.028672548 0.024171997 -0.03580696 -0.010775538 -0.031488456 0.012208176 -0.023054702
-0.03497701 -0.009542729 -0.078788966 -0.0086634215 0.028697735 -0.05399038 -0.008711534 0.011561341
0.03387777 -0.025722226 -0.07998398 -0.00034875964 -0.007455633 -0.0017905659 -0.006706653 -0.051901184
-0.07133278 0.008973006 0.010032684 -0.04850464 -0.04652112 -0.07429671 -0.010730885 -0.03286976
-0.0011125526 0.00011116856 -0.049485046 0.018491218 0.022719925 -0.004533069 0.0066446695 -0.042366605
-0.016924856 -0.034372553 -0.020354187 -0.03704689 0.006680147 0.02833648 0.0014324723 0.01637553
-0.06459457 -0.04803934 0.006786828 0.0023569576 -0.0133871455 -0.031208392 -0.017667457 -0.019103864
-0.015113039 -0.021808313 0.004004751 -0.04623117 -0.017103951 0.004423877 -0.009511033 -0.0073736263
0.018043822 -0.06655318 -0.042708263 -0.041166432 -0.044041414 0.011215326 -0.0020501427 -0.054932334
0.027567603 -0.047809444 -0.03684369 0.005778256 0.036952827 -0.022745416 0.0055955085 -0.03182493
-0.07889858 -0.042070888 -0.032986928 -0.02733903 -0.018810345 -0.050514918 -0.043793492 -0.023130802
-0.031844568 0.00085497566 -0.056096904 -0.025575131 -0.0398567 -0.015245794 -0.0174822 -0.0010742067
0.027905405 0.008008053 0.02048489 -0.015824676 0.008879032 0.01361629 -0.0030966555 0.00905632
0.001134284 0.005860954 -0.025090257 0.029820178 -0.0015038514 -0.0011817787 -0.020172006 -0.06579948
-0.042463068 -0.050350606 -0.009768457 0.03069196 -0.0048108483 0.026272895 -0.022541333 -0.050144248
-0.0067455014 -0.045261193 -0.02501299 -0.031057416 -0.011934232 -0.05119221 -0.022207627 -0.062818766
-0.040005602 -0.02701435 -0.01915139 -0.050467487 0.0085085 -0.00015872667 0.003319087 0.020683056
-0.0086516235 -0.06451566 0.014850695 -0.02704007 0.026401162 -0.050844703 -0.028570611 0.0126892775
0.03816055 0.02486238 -0.0062123286 -0.050777663 -0.029194912 0.0072927154 0.0012945217 -0.03920637
-0.030011224 0.012570768 -0.0049230247 -0.052079104 -0.03691664 -0.02169475 -0.044785414 -0.0060212715
-0.049130075 -0.05559358 -0.007781274 0.008391717 0.014828755 0.009096347 -0.05106795 -0.0065756836
0.031729776 -0.019401688 0.004325148 -0.03343071 0.043861642 0.017705997 -0.0330774 -0.017859964
-0.002989817 -0.04694801 -0.00593962 -0.049827047 0.018988563 -0.030357504 -0.04409325 0.0014100209
-0.05688899 -0.04646343 -0.043525312 -0.055306762 -0.03231809 -0.007774632 0.03178553 -0.015656568
-0.010963012 -0.027942762 -0.0776924 -0.05123363 -0.02250023 -0.010266563 -0.07935934 -0.04108003
00000000: 086f fcbc 823f acbc 1aef 8239 74e1 5abc
00000010: 180a d6bc 18ae 0cbd 9879 b3bc d5f0 10bd
00000020: fbfa 983a 8bd4 073c 62c5 54bc 804d 743c
00000030: 0bd6 b1ba 3cb8 3e3c 6969 30bd 0712 57bd
00000040: 8d88 5d3b 4171 aabd 318d 2bbd 181c 1fbc
00000050: 69d2 21bd 10bf f3bc e851 86bd 5824 b5bc
00000060: a134 66bd 52fa 74bd 1855 903a 5ef0 8d3c
00000070: 5c31 05bd e8a1 043c c236 07bd 1229 f0bc
00000080: 20f9 a43a c2f1 46bd 6cde cebb cf42 43bc
00000090: 68c9 9e3b ae2f 69bd 7b4d 123c 7bb1 13bd
000000a0: bbdd 3fbd 7cce 4939 3210 3cbd ea32 57bd
000000b0: a5e5 693c 67a1 063d 91fb c1bc 5ea0 ca3c
000000c0: 9ee9 243c add1 77bd 3c93 cb3c 8032 a5bc
000000d0: 8a4a 0b3c 1c35 e13c b921 cc3c 4b81 77bd
000000e0: c12d bcbc b1e2 ea3c 5a04 c63c 52aa 12bd
000000f0: e28b 30bc 0afa 00bd cd04 483c 37dd bcbc
00000100: 0e44 0fbd 1b59 1cbc 1c5c a1bd 06f1 0dbc
00000110: 8317 eb3c 0425 5dbd d2ba 0ebc c76b 3d3c
00000120: 6bc3 0a3d 6bb7 d2bc a4ce a3bd bad9 b6b9
00000130: 624e f4bb 6cb1 eaba 7cc3 dbbb 5696 54bd
00000140: ec16 92bd 8403 133c 2060 243c cdac 46bd
00000150: ee8c 3ebd e028 98bd 98d0 2fbc 71a2 06bd
00000160: 12d3 91ba 2b23 e938 d5b0 4abd e57a 973c
00000170: 231f ba3c 248a 94bb 87bb d93b 9b88 2dbd
00000180: ffa5 8abc 3cca 0cbd d3bd a6bc 7bbe 17bd
00000190: 22e5 da3b e821 e83c cbc1 bb3a fa25 863c
000001a0: 284a 84bd e6c4 44bd 0a64 de3b 3077 1a3b
000001b0: c255 5bbc bea8 ffbc 58bb 90bc b57f 9cbc
000001c0: ae9c 77bc 59a7 b2bc 493a 833b e55c 3dbd
000001d0: 961d 8cbc 2cf6 903b 2ad4 1bbc 769e f1bb
000001e0: a3d0 933c 094d 88bd dcee 2ebd 229e 28bd
000001f0: c564 34bd 7dc0 373c b05b 06bb ba00 61bd
00000200: 74d5 e13c d6d3 43bd 69e9 16bd 8657 bd3b
00000210: d95b 173d 9854 babc 875a b73b dc5a 02bd
00000220: 9495 a1bd 8652 2cbd 4d1d 07bd 1af6 dfbc
00000230: 2718 9abc bbe8 4ebd ce60 33bd cf7c bdbc
00000240: 736f 02bd 7220 603a dec5 65bd f082 d1bc
00000250: c740 23bd 7fc9 79bc d536 8fbc 65cc 8cba
00000260: e099 e43c 3534 033c eecf a73c c0a2 81bc
00000270: 5c79 113c dc16 5f3c 42f1 4abb f660 143c
00000280: 41ac 943a 3f0d c03b 158a cdbc 7249 f43c
00000290: e11c c5ba eae5 9aba c33f a5bc e1c1 86bd
000002a0: c1ed 2dbd 703c 4ebd e10b 20bc b56d fb3c
000002b0: 52a4 9dbb 413a d73c 9aa8 b8bc 0e64 4dbd
000002c0: 5e09 ddbb cd63 39bd 0be8 ccbc 1f6c febc
000002d0: cc87 43bc ecae 51bd c5ec b5bc 20a7 80bd
000002e0: eadc 23bd 334d ddbc 60e3 9cbc ffb6 4ebd
000002f0: 3c67 0b3c de6f 26b9 0a85 593b 836f a93c
00000300: 8abf 0dbc c920 84bd 5450 733c 2383 ddbc
00000310: 4047 d83c 8942 50bd ea0c eabc b0e6 4f3c
00000320: 3d4e 1c3d 31ac cb3c ca90 cbbb 3dfc 4fbd
00000330: 2b2a efbc bbf7 ee3b f1ac a93a dc96 20bd
00000340: 19da f5bc 9ff5 4d3c 5351 a1bb e650 55bd
00000350: e735 17bd 30b9 b1bc e970 37bd 164e c5bb
00000360: 9e3c 49bd 18b6 63bd 0ffa febb 6a7d 093c
00000370: 4ef4 723c d808 153c a02c 51bd d578 d7bb
00000380: 15f7 013d 4af0 9ebc f9b9 8d3b a4ee 08bd
00000390: 44a8 333d 2b0c 913c 2b7c 07bd 0f4f 92bc
000003a0: cef0 43bb 8e4c 40bd 25a1 c2bb 7217 4cbd
000003b0: e78d 9b3c 4db0 f8bc 209b 34bd 73d0 b83a
000003c0: 6e04 69bd 7050 3ebd 9947 32bd 5889 62bd
000003d0: f95f 04bd 57c2 febb 8b31 023d 3442 80bc
000003e0: 359e 33bc 38e8 e4bc 311d 9fbd 5bda 51bd
000003f0: 6752 b8bc 1635 28bc 2687 a2bd 8943 28bd

fc6.fc.weight f4 [84, 120]
-0.088449225 0.017016035 -0.04477719 0.14847073 0.08348198 0.048622217 0.13525014 -0.23598048
-0.11589506 0.1661419 -0.08954815 -0.019552471 0.0674982 0.07852837 0.08148929 0.009920382
0.000937012 0.0092880195 0.17528498 -0.119135514 -0.10461076 -0.03438959 0.055282276 0.039074097
0.074022554 0.030317664 -0.063060805 -0.03377342 0.017910864 -0.17594066 -0.10013216 -0.30647424
0.020675313 0.08312806 -0.21160254 -0.0005163417 0.21936466 0.33888355 0.09939752 -0.17123808
-0.3809458 0.16659865 0.027485788 -0.047108967 0.07543283 -0.018553229 0.018257258 0.20304173
0.08954205 -0.4733809 -0.14660312 -0.01612921 -0.19767101 0.16622432 0.107403465 -0.067122065
0.12459984 -0.02488028 -0.14365529 0.0025239238 -0.0030761997 -0.025748782 -0.1412265 -0.37038767
0.1396398 0.125267 -0.0071256813 -0.24823044 0.0144813275 -0.017556896 -0.059719175 0.21777867
-0.03587169 -0.06431416 -0.05052272 0.018561436 0.1283407 0.058804758 0.24009599 -0.031294767
-0.033914715 -0.05704457 0.021975996 0.116872735 -0.19813514 -0.010095506 0.13359307 0.031477045
-0.016641 -0.0033175317 0.036484126 0.1989397 -0.0012988481 -0.30667776 -0.15406652 0.04215441
0.004678377 -0.09415949 -0.15089704 0.059289247 0.073619954 -0.147689 -0.052233156 0.10241399
0.049882144 0.12778589 -0.0825297 -0.26659432 -0.077464014 -0.26613584 0.034880944 -0.17968468
0.09291272 -0.015571011 0.28221336 -0.083310395 -0.31935024 0.19068359 -0.018968092 0.05680994
0.03673019 0.1804837 0.27592736 0.064997956 -0.11924465 -0.04378801 -0.037061762 0.15944184
-0.09841963 -0.20342621 0.254671 0.05723179 -0.013537344 -0.032872412 0.0654688 0.07170017
0.030346377 -0.013301712 0.037333798 0.05662275 -0.063052826 -0.09788552 0.03305941 0.1547336
-0.0084065385 -0.09839742 -0.31998372 0.074088335 0.095121115 0.20756412 0.24255118 -0.42322817
0.06072995 -0.017812671 0.223184 0.0019629134 0.18305019 -0.52302015 0.18496054 0.009366199
0.049623758 -0.12859413 0.15499939 0.0624401 -0.11588182 -0.4230477 0.110769525 -0.06730359
0.07840319 -0.3281972 0.1642459 -0.21777686 0.42457345 -0.15160461 0.14841485 -0.013364246
-0.18279405 -0.06284169 0.45736212 0.08494908 0.02709941 0.043714445 0.25418165 -0.420342
0.19922489 0.14918245 0.12568533 0.33835647 -0.1657046 0.1899923 0.047707967 -0.0028208715
-0.0201147 0.08963226 -0.09623799 0.20703568 0.22386129 0.0048002917 0.11917921 0.2342584
0.15467678 0.015270507 -0.57224447 0.23568638 -0.16756178 0.05605955 0.1616628 -0.09059495
0.099508606 0.009539187 0.046115264 -0.078037575 -0.08226752 0.25402594 0.22835743 -0.027916068
0.051505 0.11038565 0.12655467 -0.3987488 0.26295188 0.18112253 0.23800659 0.05572942
0.29067206 -0.05506095 0.1521523 0.15988395 0.18393731 0.45356104 -0.036671862 0.18181293
0.17546879 0.041630235 0.19071425 -0.14550214 0.13255104 0.04559671 -0.02627863 -0.07834727
-0.0040345713 0.11591238 -0.17692122 0.027535068 -0.297381 0.20564342 0.1879643 -0.026269708
0.002896564 0.010373251 0.10222153 -0.109265625 0.08878116 0.24151455 0.02406249 -0.10908222
00000000: de24 b5bd 3665 8b3c 4968 37bd b608 183e
00000010: 9af8 aa3d 1728 473d 037f 0a3e dea4 71be
00000020: 645a edbd 1a21 2a3e 0565 b7bd 812c a0bc
00000030: 7f3c 8a3d 7bd3 a03d dbe3 a63d 1989 223c
00000040: d0a1 753a c72c 183c e87d 333e 52fd f3bd
00000050: 2b3e d6bd 19dc 0cbd ab6f 623d 290c 203d
00000060: 2399 973d c05c f83c 0626 81bd ff55 0abd
00000070: ceb9 923c ca29 34be 1712 cdbd 31ea 9cbe
00000080: 465f a93c 0b3f aa3d 56ae 58be 1b5b 07ba
00000090: 21a1 603e 2582 ad3e ed90 cb3d 0959 2fbe
000000a0: 540b c3be d698 2a3e e029 e13c 55f5 40bd
000000b0: 877c 9a3d f1fc 97bc 3f90 953c 2cea 4f3e
000000c0: d361 b73d fb5e f2be 211f 16be 6821 84bc
000000d0: 456a 4abe b536 2a3e 59f6 db3d 4b77 89bd
000000e0: 332e ff3d bbd1 cbbc 5f1a 13be 6a68 253b
000000f0: 119a 49bb 1cef d2bc ae9d 10be 74a3 bdbe
00000100: bcfd 0e3e fe45 003e 8c7e e9bb 1f30 7ebe
00000110: 1743 6d3c 7bd3 8fbc 189c 74bd 5f01 5f3e
00000120: 31ee 12bd 24b7 83bd e9f0 4ebd 270e 983c
00000130: bf6b 033e 42dd 703d b9db 753e f12e 00bd
00000140: 28ea 0abd 91a7 69bd 0107 b43c f95a ef3d
00000150: f0e3 4abe 9f67 25bc 9fcc 083e 13ee 003d
00000160: b552 88bc f26a 59bb 6170 153d d9b6 4b3e
00000170: 1c3e aaba de04 9dbe 9dc3 1dbe 1aaa 2c3d
00000180: 124d 993b b1d6 c0bd c184 1abe 48d9 723d
00000190: 0fc6 963d c93b 17be 6ff2 55bd 6dbe d13d
000001a0: 3851 4c3d 4eda 023e 5505 a9bd 0d7f 88be
000001b0: 74a5 9ebd f542 88be 52df 0e3d 43ff 37be
000001c0: 0649 be3d 8e1d 7fbc 457e 903e a49e aabd
000001d0: e081 a3be 8f42 433e f962 9bbc 8ab1 683d
000001e0: 6572 163d b8d0 383e 5a46 8d3e a61d 853d
000001f0: 8a36 f4bd 0e5b 33bd 13ce 17bd b944 233e
00000200: 3b90 c9bd f64e 50be 3d64 823e e26b 6a3d
00000210: bccb 5dbc 39a5 06bd 8214 863d 8ad7 923d
00000220: f798 f83c 6def 59bc 53eb 183d 42ed 673d
00000230: d721 81bd 3478 c8bd 4e69 073d 7c72 1e3e
00000240: 94bb 09bc 9684 c9bd e8d4 a3be a0bb 973d
00000250: dcce c23d b08b 543e 565f 783e 5db1 d8be
00000260: f8bf 783d e1eb 91bc 598a 643e 39a4 003b
00000270: 8271 3b3e a6e4 05bf 4c66 3d3e b074 193c
00000280: 4842 4b3d 2eae 03be 29b8 1e3e 31c1 7f3d
00000290: 7353 edbd b599 d8be 22db e23d 77d6 89bd
000002a0: da91 a03d 7709 a8be 1430 283e e600 5fbe
000002b0: b161 d93e 3d3e 1bbe 10fa 173e b6f5 5abc
000002c0: 5d2e 3bbe 25b3 80bd 5e2b ea3e c9f9 ad3d
000002d0: 95ff dd3c eb0d 333d 1924 823e 1137 d7be
000002e0: 9c01 4c3e 49c3 183e a8b3 003e 0f3d ad3e
000002f0: 77ae 29be 578d 423e 6e69 433d 5fde 38bb
00000300: 95c7 a4bc 1e91 b73d 6c18 c5bd 2901 543e
00000310: e53b 653e c44b 9d3b 3b14 f43d 6fe1 6f3e
00000320: 9763 1e3e 2631 7a3c 9d7e 12bf c557 713e
00000330: 5195 2bbe b39e 653d ef8a 253e d889 b9bd
00000340: 2bcb cb3d 404a 1c3c 5ce3 3c3d 2ad2 9fbd
00000350: e07b a8bd b00f 823e 88d6 693e 3db0 e4bc
00000360: e8f6 523d df11 e23d 8c97 013e cd28 ccbe
00000370: a1a1 863e 2f78 393e 00b8 733e 8844 643d
00000380: f8d2 943e 9787 61bd d0cd 1b3e 9eb8 233e
00000390: 105a 3c3e 2739 e83e 3c35 16bd 2b2d 3a3e
000003a0: 17ae 333e 7784 2a3d 994a 433e 83fe 14be
000003b0: 76bb 073e 9ec3 3a3d 4846 d7bc 8974 a0bd
000003c0: 7034 84bb 7863 ed3d d62a 35be 3991 e13c
000003d0: 5342 98be 3094 523e b779 403e 9233 d7bc
000003e0: 48d4 3d3b 91f4 293c 8659 d13d a8c6 dfbd
000003f0: e6d2 b53d 974f 773e b31e c53c 8066 dfbd

output.fc.weight f4 [10, 84]
-0.6543637 0.021780562 -0.13261524 -0.20204814 -0.4278033 0.07660738 -0.35532555 -0.47628576
-0.14318837 -0.38353762 -0.633864 -0.60840696 -0.4728987 -0.77604383 -0.31383198 0.023789821
-0.08024109 0.0046192887 -0.19630736 -0.04255284 0.003095264 0.055285595 -0.67407846 -0.5687015
-1.041288 -0.11764907 -0.572088 -0.075319454 -0.38027176 -0.21958268 0.058608774 -0.22406578
0.06135693 -0.019915948 -0.49841523 -0.0019008415 -0.080840774 -0.6751694 -0.78847826 -0.82215625
0.029774705 -0.63724893 -0.7507314 -0.31294233 -0.6775837 0.14704958 -0.59576213 -0.699874
-0.6933741 -0.048370294 -0.4546956 -0.095508 -0.058892436 -0.24124278 -0.32487842 -0.25234988
-0.6980594 -0.44406578 -0.44012025 0.02732512 -0.0590102 0.10371729 0.11047789 -0.68652457
-0.39453673 0.053005837 0.0033080778 -0.04060203 -0.005462934 -0.38525292 -0.06007563 -1.2445304
-0.961956 -0.2895498 -0.28513688 -0.24703918 -0.44340128 -0.54272574 0.037479844 -0.40803656
0.076672114 -0.100389205 -0.03766937 -0.04022074 -0.018528262 -0.49173602 -0.19185475 -0.18352133
0.06024736 0.033671368 -0.08540201 -0.3247103 -0.1707551 -0.40299928 -0.10733797 -0.05912512
-0.095573306 -0.09448989 -0.6245068 -0.5057784 -0.42114526 -0.54819596 -0.27769074 -0.9590617
-0.09822787 -0.11451025 -0.2601462 -0.072573625 -0.17647804 -0.13640854 -0.58253527 -0.39427796
-0.00510207 0.04898699 -0.8380395 -0.5383377 -0.65871 0.053090747 -0.5143236 0.0039606993
-0.48823154 0.08201518 -0.52995265 -0.5832748 -0.21194473 -0.0045926273 -0.6237272 -0.3747508
-0.42454982 -0.38607597 -0.01463102 -0.4638663 -0.055679698 -0.6508957 -0.033971228 -0.3883002
0.012726377 -0.39091492 -0.39664453 -0.404668 -0.7009043 -0.23496588 -0.20033474 -0.69526637
-0.22851586 -0.40412304 -0.8165196 -0.029602885 -0.47319612 -0.09244605 -0.06517553 -0.10812701
-0.034698993 0.033315863 0.08590943 -0.52708447 -0.35682282 -0.06344425 -0.10097436 -0.9392662
-0.5027097 -0.29045185 0.13785462 -0.07853963 -0.44735143 -0.14980914 -0.8433121 -0.19343156
-0.07496058 -0.31346533 -0.022185272 -0.4010531 -0.019887196 0.055218086 -0.16471338 -0.042147838
-0.31245017 0.074791506 -0.049932785 -0.62267494 0.0439746 -0.22559854 -0.021914443 -0.50127405
-0.026128493 -0.087488845 -0.5879385 -0.36260715 -0.1318854 -0.034871977 -0.04329909 0.03247148
-0.31251633 -0.8600424 -0.9341561 0.08612439 -0.6261431 -0.1412638 -0.12282604 -0.39930603
-0.030090002 -0.08542714 -0.025541255 -0.039996605 -0.47103786 0.06746679 -0.47461802 -0.4911982
0.0025051914 -0.029753216 -0.48356676 -0.1516026 -0.28075078 -0.13936162 0.01794712 0.019174084
-0.15470983 -0.6037414 -0.4244132 -0.21675454 -0.3750594 -0.2894103 -0.18861909 -0.30103362
0.10266602 -0.009759729 -1.0147177 -0.068266034 -0.19675097 -0.4245776 -0.19324493 -0.34883574
-0.4272469 -0.34089872 -0.035612598 -0.0086753 -0.017898565 -0.3453897 -0.42639545 -0.3661444
-0.57177484 -0.110257335 -0.46572807 -0.18277647 -0.15656501 -0.30929536 -0.23266071 -0.43390083
0.011061877 -0.65852314 0.0023291071 -0.17671877 -0.2006639 -0.057733957 -0.041829538 -0.1719199
00000000: 6184 27bf 266d b23c 4acc 07be b5e5 4ebe
00000010: 0909 dbbe 54e4 9c3d 3bed b5be badb f3be
00000020: f99f 12be 0b5f c4be e944 22bf 8fc0 1bbf
00000030: c71f f2be cfaa 46bf 96ae a0be dfe2 c23c
00000040: 7155 a4bd 675d 973b cc04 49be e34b 2ebd
00000050: ead9 4a3b 2673 623d 6890 2cbf 6c96 11bf
00000060: ed48 85bf fff1 f0bd 5c74 12bf 1641 9abd
00000070: fbb2 c2be 48da 60be c10f 703d 8071 65be
00000080: 6751 7b3d c526 a3bc 4830 ffbe a825 f9ba
00000090: d98f a5bd e7d7 2cbf b6d9 49bf d578 52bf
000000a0: 15ea f33c bf22 23bf ef2f 40bf fa39 a0be
000000b0: 2076 2dbf 2a94 163e de83 18bf f12a 33bf
000000c0: f780 31bf ee1f 46bd ddcd e8be b399 c3bd
000000d0: 3239 71bd 5908 77be 7756 a6be 0134 81be
000000e0: 05b4 32bf 975c e3be 7157 e1be eed8 df3c
000000f0: aeb4 71bd bb69 d43d 3b42 e23d 13c0 2fbf
00000100: b800 cabe a61c 593d 56cc 583b 504e 26bd
00000110: 6902 b3bb df3f c5be dd11 76bd c64c 9fbf
00000120: c042 76bf df3f 94be 76fd 91be d7f7 7cbe
00000130: 7e05 e3be 13f0 0abf 7784 193d 2bea d0be
00000140: 4506 9d3d db98 cdbd 334b 1abd 81be 24bd
00000150: 95c8 97bc d3c4 fbbe 9275 44be 04ed 3bbe
00000160: f0c5 763d fdea 093d 40e7 aebd 6e40 a6be
00000170: 6dda 2ebe ec55 cebe 02d4 dbbd 2f2d 72bd
00000180: f0bb c3bd ea83 c1bd addf 1fbf b17a 01bf
00000190: 5aa0 d7be 9256 0cbf 7b2d 8ebe 1185 75bf
000001a0: b22b c9bd 5a84 eabd e231 85be 7ba1 94bd
000001b0: a9b6 34be aeae 0bbe 0821 15bf cdde c9be
000001c0: 442f a7bb 95a6 483d c289 56bf 80d0 09bf
000001d0: 38a1 28bf af75 593d b6aa 03bf c1c8 813b
000001e0: 7cf9 f9be 93f7 a73d faaa 07bf 7f51 15bf
000001f0: 0a08 59be c07d 96bb 96ac 1fbf 56df bfbe
00000200: 985e d9be c0ab c5be f2b6 6fbc e27f edbe
00000210: 6510 64bd 1aa1 26bf 6a25 0bbd 49cf c6be
00000220: 4b82 503c 0026 c8be fe14 cbbe a530 cfbe
00000230: 776e 33bf e59a 70be 8d24 4dbe fafc 31bf
00000240: 1000 6abe 37e9 cebe 6e07 51bf c081 f2bc
00000250: c346 f2be 5b54 bdbd c07a 85bd b271 ddbd
00000260: 8820 0ebd 3776 083d 49f1 af3d 02ef 06bf
00000270: 7bb1 b6be 0fef 81bd a5cb cebd c073 70bf
00000280: 95b1 00bf 1bb6 94be c329 0d3e 63d9 a0bd
00000290: 3f0b e5be 9167 19be 4de3 57bf ec12 46be
000002a0: ef84 99bd 877e a0be e3bd b5bc d556 cdbe
000002b0: 79ea a2bc 5c2c 623d a0aa 28be 36a3 2cbd
000002c0: 78f9 9fbe 4a2c 993d 5286 4cbd a067 1fbf
000002d0: b61e 343d 4e03 67be eb85 b3bc 7f53 00bf
000002e0: 6c0b d6bc 5a2d b3bd 2383 16bf a5a7 b9be
000002f0: f70c 07be ebd5 0ebd 635a 31bd d100 053d
00000300: 2402 a0be bd2b 5cbf db24 6fbf fc61 b03d
00000310: ea4a 20bf 75a7 10be 388c fbbd d771 ccbe
00000320: 4f7f f6bc 6df4 aebd e53b d1bc 7bd3 23bd
00000330: e02b f1be 072c 8a3d 2201 f3be 557e fbbe
00000340: 232e 243b 04bd f3bc 1096 f7be b63d 1bbe
00000350: 91be 8fbe d0b4 0ebe d705 933c f812 9d3c
00000360: 416c 1ebe cc8e 1abf b04c d9be e7f4 5dbe
00000370: c907 c0be 962d 94be 5d25 41be 1421 9abe
00000380: 9042 d23d 45e7 1fbc 45e2 81bf 10cf 8bbd
00000390: 1679 49be 3c62 d9be 00e2 45be 999a b2be
000003a0: 1bc0 dabe 478a aebe 84de 11bd d822 0ebc
000003b0: 03a0 92bc ebd6 b0be 8150 dabe 4777 bbbe
000003c0: d65f 12bf 99ce e1bd e973 eebe c129 3bbe
000003d0: 9452 20be f65b 9ebe 9c3e 6ebe 4028 debe
000003e0: e03c 353c f994 28bf efa3 183b c4f5 34be
000003f0: d67a 4dbe 717a 6cbd 7355 2bbd c50b 30be

output.fc.bias f4 [10]
0.0440056 0.11093352 -0.22642837 0.004223195 -0.13581821 -0.21478574 -0.197884 -0.28450274
0.43813127 0.06633682
00000000: 373f 343d 1d31 e33d d7dc 67be ba62 8a3b
00000010: ee13 0bbe cbf0 5bbe 1aa2 4abe 58aa 91be
00000020: be52 e03e 99db 873d
