MODEL_FP32.pt (torch, 278114 bytes, 21 tensors)

conv1.conv.weight f4 [6, 1, 5, 5]
0	0x3da0c470	0.078499675
1	0x3e209735	0.15682681
2	0xbe3acce2	-0.18242219
3	0xbe2231ac	-0.15839261
4	0x3e09b57c	0.13448137
5	0x3def6fae	0.11691223
6	0x3df55e5c	0.11980888
7	0x3c643b7d	0.013930199
8	0xbc388f68	-0.011264659
9	0xbdb77960	-0.08958697
10	0xbdc9f56a	-0.09861262
11	0x3e22dc50	0.15904355
12	0x3dec8fe9	0.11550886
13	0xbe494f09	-0.19659056
14	0xbd1d940e	-0.038471274
15	0xbda24f94	-0.079253346
16	0x3ee5c4e1	0.4487677
17	0x3e25fbd7	0.1620935
18	0xbdd9cc2e	-0.10634647
19	0xbe538a28	-0.20658171
20	0xbea64915	-0.32477632
21	0xbdc0d58c	-0.09415731
22	0x3e99dd15	0.30051485
23	0x3e141d40	0.14464283
24	0x3d9670e3	0.0734575
25	0xbe86122b	-0.26185736
26	0x3ee2b8ab	0.44281515
27	0xbd48bb59	-0.049006794
28	0x3dd2dc53	0.1029593
29	0x3e67fc0f	0.22654746
30	0x3dd24074	0.102662
31	0x3db5ebc3	0.088828586
32	0x3bedd823	0.0072584315
33	0xbc170066	-0.009216404
34	0xbcd2cd95	-0.025732795
35	0xbe1416df	-0.1446185
36	0x3e2dd086	0.16974077
37	0x3e0b57f4	0.1360777
38	0xbd4a4618	-0.049383253
39	0xbcd59b47	-0.026075019
40	0x3e68b710	0.22726083
41	0x3de030a9	0.10946781
42	0xbe5ef591	-0.21773364
43	0xbe3cdf8c	-0.18444651
44	0xbd83bc1c	-0.064323634
45	0xbcfc7adf	-0.030820308
46	0xbd859268	-0.065220654
47	0x3d5f9816	0.0545884
48	0x3dc7b82f	0.09751927
49	0x3cdfd7a3	0.027324503
50	0x3a123684	0.00055775815
51	0x3e6b4530	0.22975612
52	0x3e780671	0.24221207
53	0x3e0d7a27	0.13816129
54	0x3e8cf8b4	0.27533495
55	0x3cea900a	0.028633136
56	0xbe500f23	-0.20318274
57	0x3b64d583	0.0034917302
58	0xbe529246	-0.20563611
59	0x3d3da3e9	0.046298895
60	0x3d81568f	0.06315338
61	0xbe14caa8	-0.14530432
62	0xbf0ddf77	-0.55419105
63	0xbe944bf7	-0.28964207
64	0xbe39da87	-0.18149768
65	0x3d43bfff	0.047790524
66	0xbe0a0dbf	-0.13481806
67	0x3dadb9c5	0.08482698
68	0xbdc49d8c	-0.09600362
69	0xbd1e5005	-0.03865053
70	0x3e4ce39b	0.200087
71	0x3e46c8b2	0.19412497
72	0x3e761c5b	0.24034254
73	0x3e9c18d0	0.3048768
74	0x3e429d05	0.1900521
75	0x3d1d0dd3	0.038343262
76	0x3e372e13	0.1788867
77	0xbd03eb54	-0.03220685
78	0x3d8156ac	0.063153595
79	0x3d09cb77	0.033641305
80	0xbf0367c4	-0.5133021
81	0xbe3c621c	-0.18396801
82	0xbc3f29db	-0.011667694
83	0x3c6ceaec	0.014460307
84	0x3c9b8d0d	0.018988157
85	0xbd96df67	-0.07366829
86	0x3e148624	0.14504296
87	0x3e8a5a52	0.27022034
88	0x3dde6f51	0.10861076
89	0xbd9a996b	-0.075487934
90	0xbe4ed5d2	-0.20198753
91	0x3e6cbee3	0.23119693
92	0x3e87873a	0.26470357
93	0x3d46d6e3	0.048544776
94	0xbdf861d5	-0.12128035
95	0x3e022572	0.12709597
96	0x3df1a5ff	0.11799239
97	0x3d2fcedd	0.04292189
98	0xbdd00277	-0.1015672
99	0xbe3bd19c	-0.18341678
100	0xbca09240	-0.019600987
101	0xbdcf4fe4	-0.1012266
102	0xbdb9b6e0	-0.09068084
103	0x3d514dc0	0.05109954
104	0x3b96339c	0.004583789
105	0x3df5b563	0.119974874
106	0x3db016db	0.08598109
107	0xbe420495	-0.1894706
108	0xbd3a3ad0	-0.045466244
109	0xbda8a045	-0.08233694
110	0x3e2b2840	0.16714573
111	0x3d455e6a	0.048185743
112	0xbdecd655	-0.11564318
113	0xbe411204	-0.18854529
114	0xbdf0ea4f	-0.11763441
115	0x3ddc43aa	0.107550934
116	0x3e222dc6	0.15837774
117	0xbd898d37	-0.06716388
118	0x3e4d36a6	0.20040378
119	0xbd8cb48d	-0.06870375
120	0xbe51a54f	-0.20473216
121	0x3ec8480d	0.3911747
122	0x3d87e6e2	0.06635834
123	0x3e64ec30	0.22355723
124	0x3e1c8656	0.1528562
125	0x3e9ce7ce	0.30645603
126	0x3da5d33f	0.080969326
127	0x3c59fad2	0.013304429
128	0x3f060d17	0.52363724
129	0x3e7c9cba	0.24669161
130	0xbddac84b	-0.10682734
131	0xbe143bc9	-0.14475931
132	0x3e152e56	0.14568457
133	0x3cf3705d	0.029716665
134	0xbdda729e	-0.10666393
135	0x3cf0eacb	0.029408833
136	0xbe72a48e	-0.23695585
137	0xbe38faaf	-0.18064378
138	0xbe107c82	-0.14109996
139	0x3cf7af9d	0.030235106
140	0x3e692a5e	0.22770068
141	0xbd654fcd	-0.055984307
142	0xbdcdaac7	-0.10042339
143	0xbe7ca26f	-0.24671338
144	0xbda3d4ca	-0.07999571
145	0xbded0823	-0.115738176
146	0x3d9a41c0	0.07532072
147	0xbe47f6c5	-0.19527729
148	0x3d61622d	0.05502527
149	0xbd32c2f8	-0.043642968

conv1.conv.weight_fake_quant.scale f4 [6]
0	0x3b67943a	0.0035336153
1	0x3b64817d	0.003486722
2	0x3b8ddfa8	0.0043296404
3	0x3b836792	0.0040101493
4	0x3b49db93	0.0030801042
5	0x3b871b7f	0.004123151

conv1.conv.weight_fake_quant.activation_post_process.min_val f4 [6]
0	0xbea648e4	-0.32477486
1	0xbe86125c	-0.26185882
2	0xbf0ddfa8	-0.554194
3	0xbf036792	-0.5132991
4	0xbe51a580	-0.2047329
5	0xbe7ca2a0	-0.24671412

conv1.conv.weight_fake_quant.activation_post_process.max_val f4 [6]
0	0x3ee5c512	0.44876915
1	0x3ee2b87a	0.4428137
2	0x3e9c189e	0.3048753
3	0x3e8a5a84	0.27022183
4	0x3ec847dc	0.39117324
5	0x3f060d48	0.52364016

conv3.conv.weight f4 [16, 6, 5, 5]
0	0xbda2762d	-0.079326965
1	0xbe461e57	-0.19347511
2	0xbe2e417e	-0.17017171
3	0xbb6e3ef2	-0.0036353436
4	0xbe1f0b9e	-0.15531775
5	0xbdc3b0cd	-0.095552064
6	0xbda8baa1	-0.08238722
7	0x3d7bffef	0.061523374
8	0x3d593a73	0.053034257
9	0xbe22271b	-0.1583523
10	0xbe823d23	-0.2543727
11	0xbda1d689	-0.079022475
12	0xbd0658a8	-0.032799393
13	0x3da72aa9	0.08162434
14	0xbd56f590	-0.05248028
15	0xbe61ddf2	-0.22057322
16	0xbdeb38c2	-0.11485435
17	0xbd9f2a5e	-0.07771753
18	0xbdc95263	-0.09830167
19	0xbaa34bf1	-0.0012458545
20	0xbe6599ae	-0.22421905
21	0xbdd77c50	-0.105217576
22	0xbcb514f0	-0.02210471
23	0xbe7a41d7	-0.24439178
24	0xbec77347	-0.38955137
25	0x3d9ad327	0.07559805
26	0x3dfb5922	0.1227286
27	0x3ea0a1ea	0.3137353
28	0x3e21037a	0.15723982
29	0x3e0fb22d	0.14032812
30	0x3ba2b0d7	0.0049649286
31	0xbb3314dd	-0.0027325668
32	0x3e2f17af	0.17098878
33	0x3de36bee	0.1110457
34	0x3dd9c241	0.10632754
35	0xbe9c28c2	-0.30499846
36	0x3d92c2c6	0.07166056
37	0x3dfbf934	0.12303391
38	0xbcd21579	-0.025645005
39	0xbe0ce848	-0.13760483
40	0xbdd0c9ed	-0.10194764
41	0xbc5823b8	-0.01319211
42	0x3dcb244c	0.099190325
43	0xbdb67a15	-0.08910004
44	0xbdafa6cf	-0.08576738
45	0x3c897460	0.016779125
46	0x3e57e9e6	0.21085319
47	0x3e3648ad	0.17801161
48	0x3d638843	0.05554987
49	0x3c7b0213	0.015320319
50	0xbe76c39f	-0.24098061
51	0xbdcc0b9c	-0.09963152
52	0xbd419328	-0.04725948
53	0xbe56356a	-0.20918813
54	0xbe3934db	-0.18086569
55	0x3dc31359	0.09525175
56	0x3d5c652a	0.053807415
57	0xbe321b2c	-0.17393178
58	0xbe075739	-0.13216867
59	0xbcb13bfe	-0.021635052
60	0x3d4f24f4	0.05057235
61	0xbe141d3f	-0.14464281
62	0xbd391640	-0.045187235
63	0x3a9d50e6	0.0012002259
64	0xbe059630	-0.13045573
65	0xbe00a091	-0.12561251
66	0xbe40227a	-0.18763152
67	0x3bec5cd4	0.0072132144
68	0xbdafec95	-0.08590046
69	0xbe5d8e63	-0.21636347
70	0xbcaa7336	-0.02080689
71	0xbe6a1beb	-0.22862212
72	0x3dc65f51	0.09686149
73	0x3de92e18	0.11385745
74	0xbc43408b	-0.011917244
75	0xbdcf82e7	-0.101323895
76	0x3e1e651c	0.15468258
77	0x3dc578a2	0.096421495
78	0x3e004707	0.12527095
79	0xbe0f7f8c	-0.14013499
80	0xbee6db2e	-0.45089096
81	0x3e0d3a67	0.1379181
82	0x3e077a92	0.1323035
83	0x3e024352	0.12720993
84	0xbf07bd20	-0.53022957
85	0xbac917e0	-0.0015342198
86	0x3dec8bdd	0.11550114
87	0x3e23235a	0.15931454
88	0xbe0603be	-0.13087365
89	0xbe900ced	-0.28134862
90	0x3d11643d	0.035495985
91	0x3e525241	0.2053919
92	0x3d62b8e4	0.055352107
93	0xbe7962d0	-0.243541
94	0xbd1c1f55	-0.038115818
95	0x3e7b5207	0.2454301
96	0x3e42bd4c	0.19017524
97	0xbc584d2b	-0.013201992
98	0xbdb3e29b	-0.08783456
99	0x3d579fd9	0.052642677
100	0x3e4511f3	0.19245128
101	0xbeafce3d	-0.34337035
102	0xbe19eeab	-0.15032451
103	0xbe70dd5c	-0.23521942
104	0xbe9ca867	-0.3059723
105	0xbd338fbe	-0.043838255
106	0xbe08f835	-0.13375933
107	0xbe2ce174	-0.16882879
108	0xbe0dbaca	-0.13840786
109	0xbe2a2f39	-0.16619577
110	0xbe712e65	-0.23552854
111	0xbe5b5c45	-0.21421917
112	0x3d66cc24	0.056347027
113	0xbd9ef18c	-0.07760915
114	0xbd346423	-0.04404081
115	0xbe29a0da	-0.16565266
116	0xbe6fb844	-0.23410136
117	0xbccedd77	-0.025252087
118	0x3d043c08	0.032283813
119	0xbe1ba3ff	-0.15199278
120	0x3c6b2919	0.01435306
121	0xbd5a35cc	-0.05327396
122	0xbd8f0e26	-0.069851205
123	0xbd5b33ba	-0.053516127
124	0xbdb88742	-0.090101734
125	0xbdf9159f	-0.12162327
126	0xbe8ae1b3	-0.2712532
127	0xbe5b8507	-0.21437465
128	0x3d721174	0.059098676
129	0x3de4d028	0.11172515
130	0x3e52f208	0.2060014
131	0xbe2b02a6	-0.16700229
132	0xbe0446ed	-0.12917681
133	0x3e0473e5	0.12934835
134	0xbda21a22	-0.07915141
135	0x3d8be6c2	0.06831123
136	0xbe67b3f6	-0.22627243
137	0x3d0afe8b	0.033934157
138	0x3c581ff4	0.013191212
139	0xbe3f9561	-0.18709327
140	0xbeb6e068	-0.35718083
141	0xbe3eb537	-0.18623815
142	0x3d82e192	0.063906804
143	0x3cc0d883	0.02354074
144	0xbdb462e8	-0.08807927
145	0xbe50fa0c	-0.20407885
146	0xbd592c4a	-0.053020753
147	0x3dd7fa30	0.10545766
148	0x3df2b95f	0.11851763
149	0x3c9f14d5	0.019419113
150	0x3e045f52	0.12926987
151	0x3d075634	0.033041194
152	0xbd5f8968	-0.0545744
153	0xbdf46ff2	-0.119354144
154	0xbe45eb6c	-0.19328088
155	0x3e0a61d8	0.13513887
156	0x3d8975e4	0.06711939
157	0x3de0ed97	0.10982817
158	0xbd720a96	-0.059092127
159	0xbd8415e0	-0.06449485
160	0x3cb9fdb4	0.022703983
161	0x3def0bad	0.11672149
162	0x3e24cea3	0.1609445
163	0x3dc5edd7	0.09664505
164	0xbceee53c	-0.029162042
165	0xbdf01e1f	-0.11724495
166	0xbd015d72	-0.031583257
167	0xbd92b5a1	-0.07163549
168	0xbd85babd	-0.06529758
169	0xbde84d9d	-0.113429286
170	0xbde12c0d	-0.1099473
171	0xbe4dc8cd	-0.2009613
172	0xbe9506a4	-0.2910663
173	0xbe97a615	-0.29618898
174	0xbe2da259	-0.16956462
175	0x3d8e94a2	0.06961943
176	0x3dcbbb8a	0.099478796
177	0x3e28cb67	0.16483842
178	0x3e2d3c84	0.16917616
179	0x3db71a64	0.089405805
180	0xbc53538a	-0.012898335
181	0x3cf781ed	0.03021332
182	0x3d6f425d	0.0584129
183	0x3d7e13d9	0.062030647
184	0xbcfab7b1	-0.030605169
185	0xbe8337c3	-0.2562848
186	0xbd5b327e	-0.05351495
187	0xbcedd459	-0.02903192
188	0xbd914854	-0.070938736
189	0x3daead7e	0.08529185
190	0xbd9aa146	-0.07550292
191	0xbced3b57	-0.02895896
192	0xbd496703	-0.049170505
193	0xbd936745	-0.071974315
194	0xbe026c11	-0.12736537
195	0xbdedf8d8	-0.11619729
196	0xbdd05f77	-0.101744585
197	0xbec44968	-0.38337255
198	0xbe26eb4d	-0.16300698
199	0x3e1b688b	0.15176599
200	0xbe3d3579	-0.1847743
201	0xbe8d915b	-0.2764996
202	0xbe7af0db	-0.24505942
203	0x3c1b1ed4	0.009467799
204	0x3e0f8d16	0.14018664
205	0xbe0a8ee5	-0.13531072
206	0x37889f74	1.6286715e-05
207	0x3e5c608d	0.21521206
208	0x3e96e6bd	0.29472914
209	0x3e3be418	0.1834873
210	0xbe3b4772	-0.18288973
211	0xbdad2422	-0.084541574
212	0x3e25e5c5	0.16200931
213	0xbd451427	-0.048114922
214	0xbe7fa971	-0.2496698
215	0x3dee4481	0.1163416
216	0x3e860e4b	0.2618278
217	0x3f0c1296	0.5471586
218	0x3e1dec53	0.15422182
219	0x3c8700b0	0.01647982
220	0x3d24a3e2	0.040195353
221	0x3db58fd2	0.08865322
222	0x3e30c968	0.1726433
223	0x3d5bf93f	0.053704496
224	0xbdb4ab4d	-0.088217355
225	0x3cfd110a	0.030891914
226	0x3e06b6aa	0.13155618
227	0x3d973cca	0.073846415
228	0x3df219cd	0.11821327
229	0xbdd13b09	-0.10216338
230	0xbd4642f4	-0.048403695
231	0xbd834ea4	-0.06411484
232	0x3d4e4732	0.050360866
233	0xbcec7b1b	-0.028867295
234	0xbcbf70d8	-0.023369238
235	0xbd0b6a96	-0.034037195
236	0xbdd4bf52	-0.10388054
237	0xbd7a6fdf	-0.061141845
238	0xbd92af7c	-0.07162377
239	0xbdb4eeb6	-0.08834593
240	0x3d52174f	0.05129176
241	0xbd965941	-0.073412426
242	0xbe7665cf	-0.24062274
243	0xbeba564e	-0.3639397
244	0xbd880c32	-0.06642951
245	0x3d114e86	0.035475276
246	0xbdb4f8b1	-0.088364966
247	0xbdeacb96	-0.11464612
248	0x3d9d4d4c	0.07680759
249	0xbd0975d2	-0.033559628
250	0xbe0e96fc	-0.13924783
251	0xbcabae4b	-0.020957133
252	0xbc0e5afe	-0.008688686
253	0x3c41356e	0.011792524
254	0xbdaed158	-0.08536023
255	0xbcb509c1	-0.022099378

conv3.conv.weight_fake_quant.scale f4 [16]
0	0x3b87bcee	0.004142395
1	0x3b8e4bb8	0.0043425225
2	0x3b7fe1bc	0.003904446
3	0x3b6be74c	0.0035996018
4	0x3b64bc06	0.003490211
5	0x3b874cb6	0.0041290177
6	0x3b83071c	0.0039986502
7	0x3b7fca42	0.0039030467
8	0x3b45fb9f	0.0030209792
9	0x3b8074f8	0.0039201938
10	0x3b85c3d8	0.0040821843
11	0x3b639b58	0.0034730043
12	0x3b978d1c	0.004624976
13	0x3bb2cdde	0.00545667
14	0x3b647ae0	0.0034863278
15	0x3b6ddce2	0.0036294986

conv3.conv.weight_fake_quant.activation_post_process.min_val f4 [16]
0	0xbf07bcee	-0.5302266
1	0xbf0e4bb8	-0.5558429
2	0xbeffe1bc	-0.4997691
3	0xbeebe74c	-0.46074903
4	0xbee4bc06	-0.446747
5	0xbf074cb6	-0.52851427
6	0xbf03071c	-0.51182723
7	0xbeffca42	-0.49958998
8	0xbe790bd6	-0.24320921
9	0xbf0074f8	-0.5017848
10	0xbf05c3d8	-0.5225196
11	0xbee39b58	-0.44454455
12	0xbf178d1c	-0.5919969
13	0xbf32cdde	-0.6984538
14	0xbee47ae0	-0.44624996
15	0xbeeddce2	-0.46457583

conv3.conv.weight_fake_quant.activation_post_process.max_val f4 [16]
0	0x3ea0a1b8	0.31373382
1	0x3f0c1264	0.5471556
2	0x3ec471ae	0.3836798
3	0x3e9ce822	0.30645853
4	0x3e8cfb9c	0.27535713
5	0x3e9762ae	0.29567474
6	0x3e9174e2	0.28409487
7	0x3eee8a1e	0.4658975
8	0x3ec46fa8	0.38366437
9	0x3ea5129e	0.32240766
10	0x3ea11e1c	0.31468284
11	0x3edd7fbc	0.43261516
12	0x3ed527be	0.41631883
13	0x3ebf05cc	0.3730911
14	0x3ed566f6	0.41680115
15	0x3e7caae4	0.24674565

conv5.conv.weight f4 [120, 16, 5, 5]
0	0x3d4261e4	0.047456637
1	0xbd1fb3eb	-0.038989943
2	0xbe147a3c	-0.14499754
3	0x3ce2db6d	0.027692521
4	0xbe069c9f	-0.13145684
5	0xbe01deaf	-0.12682603
6	0xbd8110b0	-0.06302011
7	0xbd6f2852	-0.05838806
8	0x3cfb67e6	0.030689191
9	0x3de0da94	0.109791905
10	0xbe65436f	-0.22389005
11	0xbd4b5142	-0.04963804
12	0x3ccc2bae	0.024923172
13	0x3d45d0b1	0.048294727
14	0x3e99b6a5	0.3002216
15	0xbccae371	-0.024766656
16	0x3db6a2f0	0.089177966
17	0xbc7e12c6	-0.015507406
18	0xbe16f6f0	-0.14742637
19	0x3e0e5a60	0.13901663
20	0x3d1ee4e7	0.038792517
21	0x3c5a9411	0.013340966
22	0xbe7192eb	-0.23591201
23	0xbede4ddd	-0.4341878
24	0xbe66a3bd	-0.22523399
25	0xbdac25ed	-0.08405671
26	0xbd34799c	-0.04406129
27	0xbd020360	-0.0317415
28	0x3e22b32e	0.15888664
29	0xbe79903f	-0.24371432
30	0x3d00c1a8	0.031434685
31	0x3c8158d5	0.015789429
32	0xbd292102	-0.041291244
33	0xbdb43fec	-0.08801255
34	0xbe3faaf3	-0.18717556
35	0xbc414ccf	-0.011798098
36	0xbcbc60bd	-0.022995347
37	0xbd32df9c	-0.04367028
38	0xbddf14cf	-0.10892641
39	0x3e8f4a43	0.27986345
40	0xbced87da	-0.028995443
41	0xbd7268cb	-0.05918197
42	0x3cbb8d2f	0.02289447
43	0x3cfd8a30	0.030949682
44	0x3e881bbe	0.26583666
45	0xbdf1696b	-0.11787685
46	0x3aac2182	0.0013132545
47	0x3e18745c	0.14888138
48	0x3dd54f1e	0.10415481
49	0x3eaa8b2e	0.3330931
50	0x3e42c6c4	0.19021136
51	0x3d35a91b	0.044350725
52	0x3dab6b36	0.08370058
53	0x3cb147e7	0.021640731
54	0xbea2fd65	-0.3183395
55	0x3d81b465	0.06333236
56	0x3ba86fd5	0.0051402845
57	0x3e1b3bf2	0.15159586
58	0xbd83290b	-0.06404313
59	0xbe85c7b1	-0.26128915
60	0x3e0cc631	0.13747479
61	0xbd5505da	-0.052007534
62	0xbe794960	-0.24344397
63	0xbe010503	-0.12599568
64	0xbe29a701	-0.16567613
65	0xbdc8f025	-0.09811429
66	0x39161b12	0.00014315199
67	0x3c0bbc3e	0.008528767
68	0x3befa7a2	0.0073136846
69	0x3de1a9d6	0.11018722
70	0x3decff29	0.115721054
71	0x3e67f7a8	0.22653067
72	0x3e26416e	0.16235897
73	0xbc941d75	-0.018080452
74	0x3db076f1	0.08616436
75	0xbd647d3d	-0.0557835
76	0x3e12ac50	0.14323545
77	0x3e3357b6	0.17513928
78	0x3e0043c9	0.12525858
79	0xbda05cb3	-0.07830181
80	0x3db21f8d	0.08697424
81	0x3e2784a9	0.163592
82	0x3ddc7a2e	0.107654914
83	0x3e5d73b9	0.21626176
84	0x3d8f0d59	0.06984968
85	0xbd93742b	-0.07199892
86	0x3e246ed7	0.16057907
87	0x3e124477	0.1428393
88	0xbc179ae1	-0.009253235
89	0x3ca90231	0.020630928
90	0xbd93aac6	-0.07210307
91	0xbc9ec9ad	-0.019383276
92	0x3d99d54b	0.075113855
93	0x3e78308f	0.24237274
94	0x3b9d63ee	0.0048031723
95	0xbe62ee31	-0.22161175
96	0xbe2fce88	-0.17168629
97	0x3e7512e7	0.23932992
98	0xbd7337ee	-0.05937951
99	0x3eb3a6f7	0.35088322
100	0x3d329b94	0.043605402
101	0x3de206e3	0.1103647
102	0x3cbdc1b9	0.023163663
103	0xbed4e910	-0.41584063
104	0xbeaf8139	-0.34278277
105	0xbeea50b8	-0.4576471
106	0xbdf5054e	-0.119639024
107	0x3b6611e2	0.0035105874
108	0xbed3a2b1	-0.4133506
109	0xbe8179ff	-0.25288388
110	0xbe567999	-0.20944823
111	0xbe22deba	-0.15905276
112	0x3c73f74b	0.014890502
113	0x3d6655f0	0.0562343
114	0x3ebba1a1	0.3664675
115	0xbcadd6b1	-0.021220537
116	0x3d813962	0.06309773
117	0x3d0f7339	0.035021994
118	0x3ea9e8fc	0.33185565
119	0x3eae68ac	0.34064233
120	0xbd177467	-0.036976244
121	0x3cbc2dda	0.022971082
122	0xbdc70a1a	-0.097187236
123	0x3cec4082	0.028839353
124	0x3da8bf94	0.08239666
125	0x3dba6b1d	0.091024615
126	0x3ccd1aae	0.025037136
127	0x3d01d077	0.03169295
128	0xbd1011ad	-0.035173107
129	0xbed56b10	-0.41683245
130	0x3d91f83d	0.07127426
131	0x3ca84132	0.0205389
132	0xbda6ea3e	-0.08150147
133	0xbe7866cb	-0.24257962
134	0xbe88e559	-0.26737478
135	0x3e0ab5b3	0.13545875
136	0x3dcd9311	0.10037816
137	0xbe239105	-0.1597329
138	0xbe99a2eb	-0.3000711
139	0xbd91999f	-0.07109379
140	0x3e16500c	0.14678973
141	0x3e440e9c	0.19146198
142	0x3d3544bc	0.044255003
143	0xbd008f13	-0.031386446
144	0x3e58db86	0.21177492
145	0x3d1f1d62	0.03884638
146	0x3dbbfdab	0.09179243
147	0x3d82c232	0.06384696
148	0xbd7eab7a	-0.06217525
149	0x3d623479	0.055225823
150	0xbe8d06a3	-0.27544126
151	0x3dd24618	0.102672756
152	0x3e9cb836	0.30609292
153	0x3e9e03e3	0.3086234
154	0x3de103ec	0.10987076
155	0xbe907d7c	-0.28220737
156	0x3c578f1c	0.0131566785
157	0x3e31c9d5	0.17362149
158	0x3da69ebf	0.08135747
159	0xbd89783b	-0.06712385
160	0xbec57fac	-0.38573968
161	0xbe3d08ea	-0.18460432
162	0x3e40f60f	0.18843864
163	0xbe59884b	-0.21243398
164	0xbe9e78de	-0.3095159
165	0x3d4ff478	0.050770253
166	0x3cebff16	0.028808158
167	0x3ceb46c9	0.028720276
168	0x3e51c436	0.20485005
169	0x3e1861a6	0.14881
170	0x3c313bb8	0.010817461
171	0xbd9d8e55	-0.07693163
172	0x3e239250	0.15973783
173	0x3e674325	0.22584207
174	0x3e550329	0.20801987
175	0xbe1fe5e6	-0.15615043
176	0x3c9b5f88	0.018966451
177	0x3e69ef42	0.22845176
178	0x3d6e4549	0.058171544
179	0x3c7b5487	0.015339977
180	0xbedc826a	-0.43068248
181	0xbe5c31f9	-0.21503438
182	0x3e9fa573	0.31180915
183	0x3e1a33b1	0.15058781
184	0x3d3dc6da	0.046332218
185	0xbebdf2a0	-0.3709917
186	0xbe560d95	-0.20903619
187	0x3e745b87	0.2386304
188	0x3d971f29	0.0737899
189	0xbd36035b	-0.044436794
190	0xbe064dc7	-0.13115607
191	0xbe400b58	-0.18754327
192	0xbe317836	-0.17331013
193	0xbda6ab01	-0.08138085
194	0xbea3773d	-0.3192691
195	0x3e24534e	0.16047403
196	0xbec526a4	-0.38506043
197	0xbf25ec4f	-0.64813703
198	0xbeb43114	-0.35193694
199	0xbe1eed4e	-0.15520212
200	0xbd2aefa2	-0.041732438
201	0x3ce30135	0.027710536
202	0x3d50eace	0.051005177
203	0x3d6cf0f6	0.057846986
204	0x3d8d701c	0.06906149
205	0xbde79dcf	-0.113093965
206	0x3d8eac94	0.069665104
207	0x3d2d62ad	0.042330433
208	0xbdb09cb8	-0.08623642
209	0xbcd8a82b	-0.026447376
210	0x3db8267f	0.089917175
211	0xbd61ceaf	-0.05512875
212	0xbda0313b	-0.0782189
213	0xbe1d11b3	-0.15338783
214	0xbdabb95c	-0.08384964
215	0xbd284966	-0.041085623
216	0x3c6b9a7f	0.014380096
217	0x3acca800	0.0015614033
218	0xbe820327	-0.2539303
219	0xbdbccaea	-0.0921839
220	0xbde071f3	-0.10959234
221	0xbe1d09f2	-0.15335825
222	0xbde08d91	-0.10964502
223	0xbd7cf8d8	-0.061760753
224	0x3dbc6528	0.091989815
225	0xbdbfd3a9	-0.09366543
226	0xbe56d485	-0.20979507
227	0xbde33aee	-0.11095224
228	0x3e2812f8	0.16413486
229	0xbe1b0602	-0.1513901
230	0xbeb223ce	-0.34792942
231	0xbeddb051	-0.4329858
232	0xbcfb9f40	-0.030715585
233	0x3e9701e6	0.29493636
234	0x3e79be01	0.24388887
235	0xbdfbef90	-0.12301552
236	0xbe8adf8a	-0.27123672
237	0xbe8fe200	-0.28102112
238	0xbe442483	-0.19154553
239	0x3db8db0f	0.09026157
240	0x3dcb9d3f	0.09942102
241	0x3ddc1665	0.10746459
242	0xbe277221	-0.1635213
243	0xbdf8ff77	-0.12158101
244	0xbd33856f	-0.043828424
245	0x3d07ab70	0.03312248
246	0xbc07000d	-0.008239758
247	0xbd5bc2f3	-0.053652715
248	0x3db8bc9d	0.0902035
249	0x3d8285ef	0.06373202
250	0x3e28ecd2	0.1649659
251	0x3e1e4530	0.1545608
252	0x3e2dd666	0.16976318
253	0xbe1c2ab5	-0.15250666
254	0xbe89a92c	-0.2688688
255	0xbc837053	-0.016044771

conv5.conv.weight_fake_quant.scale f4 [120]
0	0x3ba5ec1e	0.0050635478
1	0x3bafac00	0.00536108
2	0x3b45e058	0.0030193534
3	0x3a3c93b6	0.00071936415
4	0x3b66c83e	0.0035214568
5	0x3b8553f4	0.004068846
6	0x3ab54a8e	0.0013831423
7	0x3bad9e66	0.0052984236
8	0x3b7723e0	0.0037710592
9	0x3b994a10	0.0046780184
10	0x3a1c4e6c	0.00059626135
11	0x3a2a56c6	0.00064979156
12	0x3b99c20e	0.0046923226
13	0x3b8ddedc	0.0043295454
14	0x3a324b0e	0.0006801345
15	0x3b63d0a7	0.0034761818
16	0x3b8227d2	0.003972032
17	0x3b88ff1a	0.004180801
18	0x3ba6781e	0.005080237
19	0x3ac5da06	0.0015094883
20	0x3b989034	0.004655862
21	0x3b8ca183	0.0042917146
22	0x3b8fa244	0.0043833572
23	0x3b63bf53	0.003475149
24	0x3b70d790	0.003674958
25	0x3a2c0072	0.00065613457
26	0x3b6bc950	0.0035978146
27	0x3b895bc2	0.0041918466
28	0x3a33239c	0.00068336143
29	0x3b641bb5	0.0034806554
30	0x3b87e68f	0.004147358
31	0x3b9372a9	0.0044997525
32	0x3b9e6b9a	0.0048346044
33	0x3b87de3e	0.0041463664
34	0x3b3d2049	0.0028858355
35	0x3b2c1a93	0.0026260957
36	0x3b989ff4	0.00465774
37	0x3a3c3266	0.0007179141
38	0x3baec780	0.005333841
39	0x3ba7ea3e	0.0051243594
40	0x3b65499c	0.0034986502
41	0x3b89301e	0.004186644
42	0x3b9929f6	0.0046741916
43	0x3b7e8483	0.0038836307
44	0x3b78c508	0.0037959237
45	0x3b9da122	0.0048104683
46	0x3b7326f4	0.0037102075
47	0x3b824a4d	0.0039761425
48	0x3b8f7bee	0.0043787872
49	0x3b66ed7b	0.0035236764
50	0x3b744d4f	0.0037277525
51	0x3b9c784a	0.0047750818
52	0x3b40c0ec	0.0029411865
53	0x3b97bc32	0.004630589
54	0x3a2c3e48	0.000657056
55	0x3a373a8a	0.0006989619
56	0x3a2be012	0.00065565214
57	0x3a524492	0.0008021082
58	0x3bab8a4f	0.0052349935
59	0x3b36f8f8	0.0027919393
60	0x3b6a3f4d	0.0035743297
61	0x3b64302a	0.0034818747
62	0x3b78b11a	0.0037947358
63	0x3b88908e	0.004167623
64	0x3b7cc30e	0.003856841
65	0x3ba7e4e8	0.0051237233
66	0x3b5fe2a9	0.00341622
67	0x3b7f8b73	0.003899303
68	0x3b46a254	0.0030309157
69	0x3a1aee46	0.00059101393
70	0x3b87344c	0.0041261073
71	0x3a427c9a	0.000741908
72	0x3b5c176d	0.0033583299
73	0x3a1c15f4	0.0005954199
74	0x3b286781	0.0025696459
75	0x3a35b3f6	0.00069314183
76	0x3b77f12e	0.0037832963
77	0x3b5d6e60	0.0033787712
78	0x3b6b09f0	0.0035864078
79	0x3bd2098c	0.0064098295
80	0x3b3b73e8	0.002860302
81	0x3bc110a9	0.0058918786
82	0x3a40f444	0.0007360617
83	0x3ba6532a	0.005075832
84	0x3a334528	0.0006838613
85	0x3b881ed8	0.0041540675
86	0x3b8c6a65	0.004285144
87	0x3a81b726	0.0009896501
88	0x3b2e50c4	0.0026598433
89	0x3b5fdde2	0.0034159352
90	0x3b531026	0.003220567
91	0x3a33f898	0.00068653515
92	0x3b828472	0.003983074
93	0x3a246dc6	0.0006272461
94	0x3b967460	0.0045915097
95	0x3a220ac8	0.0006181416
96	0x3b4b5270	0.0031024478
97	0x3b65a582	0.0035041277
98	0x3aae7faa	0.0013313193
99	0x3b86e748	0.0041169263
100	0x3b637e28	0.0034712646
101	0x3ae8c84c	0.0017759888
102	0x3b86d302	0.0041145096
103	0x3b954b0a	0.0045560645
104	0x3bb32932	0.0054675573
105	0x3b9a399f	0.004706576
106	0x3b9e078e	0.004822678
107	0x3b8ef01a	0.0043621184
108	0x3a2a9092	0.0006506528
109	0x3b7d0b30	0.0038611405
110	0x3b69cd18	0.0035675224
111	0x3b913c8d	0.004432267
112	0x3b660f9c	0.0035104519
113	0x3a50693c	0.00079502515
114	0x3b52f1c4	0.003218756
115	0x3b3ecd4e	0.002911407
116	0x3b8b3a90	0.0042489246
117	0x3ba3872e	0.00499048
118	0x3b8ce93c	0.0043002646
119	0x3b6df5b0	0.0036309771

conv5.conv.weight_fake_quant.activation_post_process.min_val f4 [120]
0	0xbf25ec1e	-0.6481341
1	0xbf2fac00	-0.68621826
2	0xbec5e058	-0.38647723
3	0xbdbc93b6	-0.09207861
4	0xbedc44e4	-0.4302131
5	0xbf0553f4	-0.5208123
6	0xbe354a8e	-0.17704222
7	0xbf2d9e66	-0.6781982
8	0xbef723e0	-0.48269558
9	0xbf194a10	-0.59878635
10	0xbd9c4e6c	-0.07632145
11	0xbdaa56c6	-0.08317332
12	0xbf19c20e	-0.6006173
13	0xbf0ddedc	-0.5541818
14	0xbdb24b0e	-0.08705722
15	0xbebb8c2e	-0.36630386
16	0xbef8f028	-0.48620725
17	0xbf08ff1a	-0.53514254
18	0xbef290c4	-0.47376072
19	0xbe2d4810	-0.16922021
20	0xbf189034	-0.59595037
21	0xbef15d52	-0.4714151
22	0xbf0fa244	-0.5610697
23	0xbebc22f2	-0.3674541
24	0xbef0d790	-0.4703946
25	0xbdac0072	-0.083985224
26	0xbeebc950	-0.46052027
27	0xbf095bc2	-0.53655636
28	0xbdb3239c	-0.08747026
29	0xbea9a3ba	-0.33132726
30	0xbedc97cc	-0.43084562
31	0xbf10a1e2	-0.56497014
32	0xbf1e6b9a	-0.61882937
33	0xbf038fa4	-0.51391053
34	0xbe9fed08	-0.31235528
35	0xbea8e9f8	-0.32991004
36	0xbf189ff4	-0.5961907
37	0xbdbc3266	-0.091893
38	0xbf2ec780	-0.6827316
39	0xbf27ea3e	-0.655918
40	0xbee5499c	-0.44782722
41	0xbf09301e	-0.53589046
42	0xbed98508	-0.42484307
43	0xbe92c0f0	-0.28662825
44	0xbed90b1a	-0.42391282
45	0xbebc7230	-0.36805868
46	0xbef326f4	-0.47490656
47	0xbec18308	-0.3779528
48	0xbf0f7bee	-0.56048477
49	0xbed4157c	-0.4142264
50	0xbee7ea54	-0.45295966
51	0xbf1c784a	-0.61121047
52	0xbea33a2c	-0.3188032
53	0xbf17bc32	-0.5927154
54	0xbdac3e48	-0.08410317
55	0xbdb73a8a	-0.08946712
56	0xbdabe012	-0.083923474
57	0xbdd24492	-0.10266985
58	0xbeeae074	-0.4587437
59	0xbeb5aa1e	-0.35481352
60	0xbec4b0c2	-0.38416106
61	0xbee4302a	-0.44567996
62	0xbef8b11a	-0.48572618
63	0xbf08908e	-0.5334557
64	0xbee41926	-0.44550437
65	0xbf1c3c76	-0.61029756
66	0xbeb16b82	-0.34652334
67	0xbee52488	-0.44754434
68	0xbec6a254	-0.38795722
69	0xbd9aee46	-0.07564978
70	0xbf07344c	-0.52814174
71	0xbdc27c9a	-0.09496422
72	0xbec4d58e	-0.3844418
73	0xbd9c15f4	-0.07621375
74	0xbe92acfc	-0.28647602
75	0xbdb5b3f6	-0.088722154
76	0xbeac6944	-0.3367406
77	0xbedd6e60	-0.43248272
78	0xbee41dea	-0.44554073
79	0xbf52098c	-0.8204582
80	0xbe906ee6	-0.2820961
81	0xbeda67ae	-0.42657226
82	0xbdc0f444	-0.0942159
83	0xbf26532a	-0.6497065
84	0xbdb34528	-0.08753425
85	0xbf04b0ca	-0.5183226
86	0xbefa019c	-0.48829353
87	0xbddce16c	-0.10785183
88	0xbeaac97c	-0.33356845
89	0xbed9bfae	-0.42529052
90	0xbeacbe48	-0.33738923
91	0xbdb3f898	-0.0878765
92	0xbf028472	-0.50983346
93	0xbda46dc6	-0.0802875
94	0xbf167460	-0.58771324
95	0xbda20ac8	-0.079122126
96	0xbecb5270	-0.39711332
97	0xbee5a582	-0.44852835
98	0xbe2e7faa	-0.17040887
99	0xbf06e748	-0.5269666
100	0xbebfb616	-0.37443608
101	0xbe68c84c	-0.22732657
102	0xbf06d302	-0.5266572
103	0xbf154b0a	-0.58317626
104	0xbf332932	-0.69984734
105	0xbef5c0be	-0.47998613
106	0xbf1e078e	-0.6173028
107	0xbf0ef01a	-0.55835116
108	0xbdaa9092	-0.08328356
109	0xbefd0b30	-0.49422598
110	0xbee9cd18	-0.45664287
111	0xbee77d9e	-0.45213026
112	0xbee60f9c	-0.44933784
113	0xbdd0693c	-0.10176322
114	0xbed2f1c4	-0.41200078
115	0xbebecd4e	-0.3726601
116	0xbf0b3a90	-0.54386234
117	0xbea96c1a	-0.33090287
118	0xbf0ce93c	-0.5504339
119	0xbeedf5b0	-0.46476507

conv5.conv.weight_fake_quant.activation_post_process.max_val f4 [120]
0	0x3efb3126	0.49060935
1	0x3ef65bb8	0.4811685
2	0x3ec0dd76	0.3766896
3	0x3d4556b2	0.048178382
4	0x3ee4faae	0.44722503
5	0x3ec03036	0.37536782
6	0x3e010ab2	0.12601736
7	0x3ecf04cc	0.40433347
8	0x3edcb228	0.43104672
9	0x3ebc5826	0.36786002
10	0x3d54ccc0	0.051953077
11	0x3d58731e	0.05284416
12	0x3e9fc662	0.31206042
13	0x3edf4c92	0.43613106
14	0x3d4ad969	0.049523745
15	0x3ee20906	0.4414751
16	0x3f012382	0.50444806
17	0x3eca4fce	0.3951401
18	0x3f252b2e	0.6451901
19	0x3e444e52	0.19170502
20	0x3effc108	0.4995196
21	0x3f0b8840	0.54504776
22	0x3ed5534c	0.41665113
23	0x3ee1f7d4	0.4413439
24	0x3ec883d8	0.3916309
25	0x3d653464	0.055958167
26	0x3eb9047c	0.36136234
27	0x3eaa830e	0.33303112
28	0x3d480acc	0.04883842
29	0x3ee2537e	0.44204324
30	0x3f06d6c2	0.52671444
31	0x3f124bc4	0.5714686
32	0x3ee942e4	0.45558846
33	0x3f06ce82	0.52658856
34	0x3ebba608	0.3665011
35	0x3eaac25e	0.33351415
36	0x3ebdc1c0	0.37061882
37	0x3dad36ae	0.08457695
38	0x3ebff546	0.37491816
39	0x3e9cc162	0.3061629
40	0x3eadddd8	0.33958316
41	0x3ed6f384	0.41982663
42	0x3f17f7a2	0.5936223
43	0x3efc877a	0.4932211
44	0x3ef6d37e	0.4820823
45	0x3f1c65e0	0.6109295
46	0x3ec3f1a6	0.382703
47	0x3f0145b8	0.5049701
48	0x3ee01422	0.4376536
49	0x3ee51fa0	0.4475069
50	0x3ef264b4	0.47342455
51	0x3ebb1712	0.3654104
52	0x3ebf3f6a	0.3735307
53	0x3e9e0118	0.3086021
54	0x3d4535e8	0.048147112
55	0x3d39401a	0.045227148
56	0x3d890498	0.06690329
57	0x3d3fff7c	0.04687451
58	0x3f2a333a	0.66484416
59	0x3eb58b06	0.3545763
60	0x3ee86ace	0.45393986
61	0x3e9c75f6	0.30558747
62	0x3ebee068	0.37280583
63	0x3ece1e78	0.4025762
64	0x3efac988	0.4898188
65	0x3f26951e	0.65071285
66	0x3ede22e4	0.43385994
67	0x3efd8c5c	0.49521148
68	0x3ebec568	0.37259984
69	0x3d34d128	0.04414478
70	0x3eb99668	0.36247563
71	0x3d7f7764	0.06236972
72	0x3eda5f3e	0.4265079
73	0x3d653946	0.055962823
74	0x3ea716b2	0.32634503
75	0x3d7220a2	0.059113152
76	0x3ef6014c	0.48047864
77	0x3ebe5d64	0.37180626
78	0x3ee933dc	0.45547378
79	0x3ef1c6c2	0.47221953
80	0x3eb9fd00	0.36325836
81	0x3f3f8e88	0.7482686
82	0x3d707e92	0.058714457
83	0x3ed6864c	0.41899335
84	0x3d5827d0	0.052772343
85	0x3f070e9a	0.52756655
86	0x3f0b5190	0.5442133
87	0x3e00b3b8	0.12568557
88	0x3eacf422	0.3378001
89	0x3ede1e26	0.43382376
90	0x3ed16a06	0.40901202
91	0x3d935d60	0.07195544
92	0x3ed63afa	0.4184187
93	0x3d4c7eaa	0.049925484
94	0x3ed58b70	0.41707945
95	0x3d63122a	0.055437244
96	0x3ebe8ac6	0.3721525
97	0x3ec73b06	0.3891222
98	0x3e2b5bbe	0.16734216
99	0x3ef96ad8	0.48714328
100	0x3ee1b72c	0.44085062
101	0x3e46d396	0.19416651
102	0x3ee636da	0.44963723
103	0x3ee21c0c	0.44162023
104	0x3eea0fee	0.45715278
105	0x3f19052c	0.59773517
106	0x3eb86ad2	0.36018997
107	0x3ef49490	0.47769594
108	0x3d938cb2	0.0720457
109	0x3ecf06c2	0.40434843
110	0x3eb069aa	0.34455615
111	0x3f101a14	0.5628979
112	0x3edeb854	0.43500006
113	0x3d479e3a	0.04873488
114	0x3ebe98e2	0.37226015
115	0x3e8d4608	0.27592492
116	0x3ec43e70	0.38328886
117	0x3f224020	0.63379097
118	0x3eabf718	0.33586955
119	0x3ed32454	0.41238654

fc6.fc.weight f4 [84, 120]
0	0xbd018be2	-0.031627543
1	0x3db521e3	0.08844354
2	0x3cdd8575	0.027041176
3	0x3dd8d1de	0.10586904
4	0x3d99c4a4	0.07508209
5	0x3de3e35b	0.11127349
6	0xbdafcf0a	-0.085844114
7	0xbe2c7d28	-0.16844618
8	0xbe034223	-0.12818198
9	0x3e977b86	0.29586428
10	0x3da16f99	0.07882614
11	0xbd6a469e	-0.057196252
12	0x3d03c5fb	0.03217123
13	0x3cb5d257	0.022195024
14	0x3cc88ba2	0.024480645
15	0xbd758278	-0.059938878
16	0x3d851e9d	0.0649998
17	0x3e433440	0.190629
18	0x3e1cc4d6	0.15309462
19	0x3dc7addc	0.09749958
20	0x3cd5cea4	0.02609951
21	0x3d8b6be0	0.06807685
22	0x3b92538c	0.004465526
23	0x3e0adccc	0.1356079
24	0xbebbe77d	-0.3670005
25	0x3bde5ec6	0.0067862
26	0xbeb16b9c	-0.34652412
27	0x3d83f663	0.06443479
28	0x3d3a9e0d	0.045560885
29	0x3e77af25	0.24187906
30	0x3c271ddc	0.01019999
31	0xbea3061b	-0.31840596
32	0xbcc02ee5	-0.023459861
33	0x3e11b4f5	0.14229186
34	0xbd84be73	-0.06481638
35	0xbc19e8de	-0.009393899
36	0xbc7fa841	-0.01560408
37	0xbd07b3e3	-0.033130538
38	0x3d8b7a85	0.06810478
39	0xbe5a047f	-0.21290778
40	0xbe226402	-0.15858462
41	0xbbab4846	-0.0052271215
42	0x3f1e8b76	0.6193155
43	0x3e846e3a	0.25865346
44	0xbea98d09	-0.33115414
45	0x3de8dfe9	0.113708325
46	0xbc55f2cf	-0.013058378
47	0x3e1457fd	0.1448669
48	0x3cd9a4c3	0.026567822
49	0x3d82b6a3	0.063824914
50	0xbd549778	-0.051902264
51	0x3d1f828d	0.038942862
52	0x3e3ed50a	0.18635955
53	0x3e26aa33	0.16275863
54	0xbdec4fe4	-0.115386754
55	0x3cca4973	0.024693226
56	0x3d86d319	0.065832324
57	0xbc1eb117	-0.009685776
58	0x3e7ab47b	0.2448291
59	0xbddf072e	-0.10890041
60	0x3d46d7f8	0.048545808
61	0x3e3fcfc3	0.18731599
62	0xbdcd1462	-0.10013653
63	0x3e76c5e9	0.24098934
64	0x3c5982f4	0.013275851
65	0x3e18ad47	0.1490985
66	0xbd238c4d	-0.039928723
67	0xbd1ddc80	-0.038540363
68	0x3c579da7	0.013160146
69	0x3d9dd696	0.07706945
70	0xbd30967d	-0.043112267
71	0xbd637dc1	-0.05553985
72	0x3cc8e0ea	0.02452131
73	0xbd867dc7	-0.06566959
74	0x3e472994	0.19449455
75	0xbc1be937	-0.009516052
76	0xbd60a9c1	-0.05484939
77	0xbda80dcd	-0.08205757
78	0xbd5e7695	-0.054312307
79	0x3df7a9fd	0.120929696
80	0x3e53bbef	0.2067716
81	0x3e03ae1c	0.12859386
82	0xbbe3ae69	-0.0069482815
83	0xbe37bb27	-0.17942487
84	0x3c09e321	0.008415968
85	0x3e298d21	0.16557743
86	0x3d50074b	0.050788205
87	0x3e1f6672	0.15566424
88	0x3c3f289c	0.011667397
89	0xbe05ab4b	-0.13053624
90	0xbcbc4aff	-0.02298498
91	0x3d014669	0.03156129
92	0x3da39562	0.07987477
93	0x3bd44b57	0.006478708
94	0xbdb72aef	-0.08943736
95	0x3d3d1579	0.046163056
96	0x3e6fbf5d	0.23412843
97	0xbe6f4689	-0.23366751
98	0x3914e68e	0.00014200268
99	0xbce25456	-0.027628105
100	0x3d5ab4b0	0.053394973
101	0x3d1ad4de	0.037800662
102	0xbd99c705	-0.07508663
103	0xbcb05cf3	-0.021528697
104	0xbd8d6bca	-0.06905325
105	0x3e0ec7b1	0.13943364
106	0xbcdd4327	-0.02700956
107	0x3c038892	0.008028166
108	0xbcb3e411	-0.021959336
109	0xbde83104	-0.11337474
110	0x3d187e4d	0.037229825
111	0xbd0e562c	-0.03475015
112	0xbb4976e6	-0.0030741035
113	0x3cd01161	0.025398912
114	0xbd875cfe	-0.06609534
115	0x3d3ca49a	0.046055414
116	0xbd884c15	-0.066551365
117	0x3e183461	0.14863731
118	0x3d06e753	0.03293545
119	0x3d83895b	0.06422683
120	0xbe50af0b	-0.20379274
121	0xbe488570	-0.19582152
122	0xbc627f13	-0.013824242
123	0xbda4dd6c	-0.08050045
124	0xbc908141	-0.017639758
125	0xbb9030d5	-0.0044003525
126	0x3e2f8c9a	0.17143479
127	0xbdddb758	-0.10825986
128	0xbdea6720	-0.11445451
129	0xbdebe62f	-0.115185134
130	0xbcb793d2	-0.022409353
131	0x3c3cf922	0.011534007
132	0xbe711253	-0.23542146
133	0xbee58b4c	-0.44832838
134	0xbd81eca0	-0.06343961
135	0x3d8acaa8	0.06776935
136	0xbdfabbb2	-0.12242831
137	0x3d97fc71	0.07421196
138	0x3d6ff359	0.058581684
139	0x3deb5c3d	0.114922024
140	0xbd8ab5bb	-0.067729436
141	0x3caf0e6a	0.021369178
142	0x3d7e5a1b	0.06209765
143	0xbcf6f0e5	-0.030144164
144	0xbbd60f7f	-0.006532609
145	0x3dac47b6	0.08412115
146	0xbea685d0	-0.32523966
147	0x3e3cb882	0.18429759
148	0x3d9025f9	0.07038493
149	0x3b8a78a8	0.004225809
150	0x3d4c28af	0.049843486
151	0xbe7fcae9	-0.24979748
152	0x3d299450	0.041401207
153	0xbd2ea9a1	-0.04264224
154	0x3dddcc73	0.10830011
155	0x3c7dea17	0.015497706
156	0x3c9ab4b8	0.018885002
157	0x3d66b69e	0.0563265
158	0xbda3d69a	-0.079999164
159	0xbe834a0d	-0.25642434
160	0xbeb4950a	-0.35269958
161	0x3cf20f09	0.029548185
162	0xbdcaaa3c	-0.09895751
163	0x3d0d3519	0.034474466
164	0xbebff924	-0.37494767
165	0xbcf54fdf	-0.029945312
166	0x3e049b7c	0.12949938
167	0x3e2ec00b	0.17065446
168	0xbd8a3829	-0.06748993
169	0x3cfb892f	0.030705063
170	0xbe13febb	-0.1445264
171	0xbe7b184d	-0.24520989
172	0x3d8a8fbb	0.06765696
173	0xbd6a5a68	-0.057215124
174	0x3c94a3d0	0.018144518
175	0x3da73569	0.08164484
176	0x3d951fd7	0.072814636
177	0x3d761e77	0.060087647
178	0x3d07d4a1	0.033161763
179	0xbcc6e12b	-0.02427729
180	0xbd92c44f	-0.07166349
181	0xbde8876d	-0.113539554
182	0x3c410628	0.011781253
183	0xbdac9df0	-0.08428562
184	0xbec45c8a	-0.38351852
185	0x3e2a03f1	0.16603066
186	0xbe01461a	-0.12624398
187	0xbe743fce	-0.23852465
188	0x3e0ec171	0.1394098
189	0x3db9ab38	0.090658605
190	0xbe5f07e0	-0.21780348
191	0x3c7f546f	0.015584095
192	0x3e0af026	0.13568172
193	0x3c800020	0.01562506
194	0x3d743efc	0.05963038
195	0x3cc48978	0.023991331
196	0x3dacefb1	0.08444155
197	0x3c4415bf	0.011968075
198	0x3dbba2b3	0.09161892
199	0x3e38660c	0.18007678
200	0x3e8eff83	0.27929315
201	0xbd043158	-0.03227362
202	0x3c9c972f	0.019115059
203	0xbe275a11	-0.16342951
204	0xbda958be	-0.08268879
205	0x3e28bc2d	0.16478033
206	0xbccee5fe	-0.025256153
207	0x3d2b2815	0.041786272
208	0xbc88fdb7	-0.016722543
209	0xbeac0b93	-0.3360258
210	0xbdb3ad3a	-0.08773275
211	0x3d6d9471	0.058002893
212	0x3d5b719f	0.053575154
213	0xbdca1a1a	-0.0986826
214	0x3d7dfd45	0.062009115
215	0x3c863f1c	0.016387515
216	0xbe1e6692	-0.15468815
217	0xbd780d19	-0.060559366
218	0x3d964436	0.07337229
219	0xbd326733	-0.04355545
220	0x3d162a0a	0.036661185
221	0xbca70b1c	-0.02039104
222	0x3bf31b35	0.007419015
223	0x3d3bec31	0.045879547
224	0xbe4ae059	-0.19812144
225	0x3ccbfde5	0.02490134
226	0xbe5fbd9e	-0.21849677
227	0x3db2009b	0.08691522
228	0x3c553aba	0.01301449
229	0x3e869d02	0.26291662
230	0xbd1297f4	-0.035789445
231	0xbd675259	-0.056475017
232	0x3d376855	0.044777233
233	0xbd632955	-0.05545934
234	0xbe0b397e	-0.1359615
235	0x3e0fdd7e	0.14049336
236	0xbe4e43f2	-0.20143107
237	0xbc952569	-0.018206315
238	0x3e001017	0.12506138
239	0xbe061db5	-0.1309727
240	0xbe679520	-0.2261548
241	0xbed5f119	-0.41785505
242	0x3e1c6e4c	0.1527645
243	0x3cf55d80	0.02995181
244	0x3dd3a65e	0.103344664
245	0x3dba42a7	0.09094744
246	0x3d63cc92	0.055615015
247	0xbc5b5997	-0.013388059
248	0xbeb35c44	-0.3503133
249	0x3e33e6f5	0.17568572
250	0x3d5e601b	0.054290872
251	0x3cd382c2	0.025819186
252	0x3de49912	0.11162008
253	0x3d263d2b	0.040585678
254	0xbc611c98	-0.013739727
255	0x3e9a5a6b	0.30147108

fc6.fc.weight_fake_quant.scale f4 [84]
0	0x3b9fcada	0.0048764767
1	0x3b658b1a	0.0035025538
2	0x3b55f0e8	0.0032644812
3	0x3b6a8d22	0.0035789688
4	0x3b53d2af	0.0032321622
5	0x3b84a090	0.004047461
6	0x3bae8422	0.00532581
7	0x3b92cf38	0.004480269
8	0x3b399ecc	0.002832341
9	0x3b7c7c57	0.003852626
10	0x3b8fc069	0.0043869507
11	0x3b534e4b	0.0032242711
12	0x3bb4b73c	0.0055150073
13	0x3b570b0c	0.003281298
14	0x3b3347dc	0.0027356064
15	0x3b97fad6	0.0046380563
16	0x3b65dbfc	0.0035073748
17	0x3ba19738	0.0049313568
18	0x3b6a113e	0.0035715844
19	0x3b860736	0.004090215
20	0x3a94c41e	0.0011349951
21	0x3b256dde	0.0025242488
22	0x3b64106f	0.0034799834
23	0x3b75d666	0.0037511825
24	0x3b67cfa8	0.0035371576
25	0x3b5851c8	0.003300773
26	0x3b5852c4	0.0033008317
27	0x3b680582	0.0035403674
28	0x3b52a7cc	0.0032143472
29	0x3b96e74a	0.0046052085
30	0x3ba50900	0.0050364733
31	0x3b66516a	0.0035143741
32	0x3b486790	0.0030579306
33	0x3b2cf05c	0.0026388383
34	0x3b7174a8	0.0036843214
35	0x3b21ea81	0.0024706426
36	0x3b281046	0.0025644465
37	0x3b4d72e2	0.0031348993
38	0x3b51f134	0.0032034637
39	0x3b9299b2	0.0044738883
40	0x3b898193	0.0041963547
41	0x3b2d4ccc	0.002644348
42	0x3b5dd23c	0.0033847233
43	0x3b8b3846	0.0042486517
44	0x3b37ad81	0.0028027
45	0x3b864e3a	0.004098681
46	0x3b713fba	0.0036811666
47	0x3b952cb4	0.004552448
48	0x3b637b94	0.003471111
49	0x3b814f4e	0.0039462214
50	0x3b4abc6f	0.003093507
51	0x3b53a9e6	0.0032297312
52	0x3b5c2b40	0.0033595115
53	0x3b69cb02	0.003567398
54	0x3b5b8b57	0.00334998
55	0x3b3229fe	0.0027185674
56	0x3b4eb4d2	0.0031540883
57	0x3b4da4a0	0.0031378642
58	0x3b96b62c	0.0045993533
59	0x3b449332	0.0029994962
60	0x3b4f0fd4	0.0031595128
61	0x3b89d9ec	0.0042068865
62	0x3b708900	0.0036702752
63	0x3b6d1100	0.0036173463
64	0x3b38aa5b	0.0028177712
65	0x3b834b4d	0.0040067793
66	0x3b8d152c	0.0043055024
67	0x3b4cf2ee	0.0031272727
68	0x3b425976	0.0029655374
69	0x3b354e0c	0.0027664928
70	0x3b629ca0	0.003457822
71	0x3aa81a82	0.0012825283
72	0x3b31606a	0.0027065524
73	0x3b7b1777	0.0038313547
74	0x3b91be53	0.0044477372
75	0x3bbbdf99	0.005733442
76	0x3b89e136	0.0042077554
77	0x3b3752af	0.0027972867
78	0x3b6b8c1e	0.003594167
79	0x3b5e2a4e	0.0033899727
80	0x3b359575	0.0027707492
81	0x3b6ea79e	0.0036415826
82	0x3b6120c8	0.0034351815
83	0x3b28117b	0.0025645185

fc6.fc.weight_fake_quant.activation_post_process.min_val f4 [84]
0	0xbebbe7ae	-0.36700195
1	0xbee58b1a	-0.4483269
2	0xbed5f0e8	-0.4178536
3	0xbeb25492	-0.34830147
4	0xbeae48fe	-0.34040064
5	0xbf04a090	-0.518075
6	0xbee1d38c	-0.4410671
7	0xbf04e65a	-0.5191399
8	0xbeb99ecc	-0.36253965
9	0xbebf1a1c	-0.37324607
10	0xbed7b2ec	-0.42128694
11	0xbe96b604	-0.29435742
12	0xbf34b73c	-0.70592093
13	0xbea8652c	-0.32889688
14	0xbeb18be6	-0.34677047
15	0xbf17fad6	-0.5936712
16	0xbed7619c	-0.42066658
17	0xbf219738	-0.63121367
18	0xbe946880	-0.28985977
19	0xbec8443e	-0.39114565
20	0xbe14c41e	-0.14527938
21	0xbea56dde	-0.32310385
22	0xbe980b02	-0.29695898
23	0xbef5d666	-0.48015136
24	0xbee7cfa8	-0.45275617
25	0xbed851c8	-0.42249894
26	0xbed852c4	-0.42250645
27	0xbee80582	-0.45316702
28	0xbed2a7cc	-0.41143644
29	0xbf16e74a	-0.5894667
30	0xbeba2326	-0.3635494
31	0xbee6516a	-0.4498399
32	0xbec86790	-0.39141512
33	0xbeacf05c	-0.3377713
34	0xbef174a8	-0.47159314
35	0xbe82e6f8	-0.2556684
36	0xbea81046	-0.32824916
37	0xbecd72e2	-0.4012671
38	0xbed1f134	-0.41004336
39	0xbf1299b2	-0.5726577
40	0xbe7c9f2a	-0.24670091
41	0xbead4ccc	-0.33847654
42	0xbeddd23c	-0.4332446
43	0xbf0b3846	-0.5438274
44	0xbe8707ee	-0.26373237
45	0xbf02eef4	-0.51145864
46	0xbef13fba	-0.47118932
47	0xbf152cb4	-0.58271337
48	0xbee37b94	-0.4443022
49	0xbf014f4e	-0.50511634
50	0xbec39630	-0.3820052
51	0xbea8e87c	-0.32989872
52	0xbedc2b40	-0.43001747
53	0xbeb5c06c	-0.3549837
54	0xbed5105a	-0.41614038
55	0xbeb229fe	-0.34797662
56	0xbebfade2	-0.3743735
57	0xbecda4a0	-0.4016466
58	0xbe996058	-0.29956317
59	0xbeab9814	-0.33514464
60	0xbecf0fd4	-0.40441763
61	0xbeb3a694	-0.35088027
62	0xbef08900	-0.46979523
63	0xbebca316	-0.36843175
64	0xbead83f6	-0.3388974
65	0xbeb141d4	-0.34620535
66	0xbf0d152c	-0.5511043
67	0xbeb8fb8c	-0.36129415
68	0xbec25976	-0.37958878
69	0xbeb54e0c	-0.35411108
70	0xbee29ca0	-0.4426012
71	0xbe281a82	-0.16416362
72	0xbeb1606a	-0.3464387
73	0xbed0e7be	-0.40801805
74	0xbe976e66	-0.29576415
75	0xbeb90d06	-0.3614275
76	0xbee0ca26	-0.43904227
77	0xbe9f87ae	-0.31158203
78	0xbeeb8c1e	-0.46005338
79	0xbede2a4e	-0.4339165
80	0xbea1096a	-0.31452495
81	0xbeeea79e	-0.46612257
82	0xbee120c8	-0.43970323
83	0xbe9411ee	-0.2891993

fc6.fc.weight_fake_quant.activation_post_process.max_val f4 [84]
0	0x3f1e8b44	0.6193125
1	0x3e8eff52	0.2792917
2	0x3ea6edd6	0.3260333
3	0x3ee8b808	0.45452905
4	0x3ed22b0a	0.4104846
5	0x3eaff458	0.34366107
6	0x3f2d271a	0.6763779
7	0x3f11a99a	0.56899416
8	0x3e894400	0.26809692
9	0x3efa835e	0.4892835
10	0x3f0ea0e8	0.55714273
11	0x3ed1a7ae	0.40948242
12	0x3ef57eec	0.47948396
13	0x3ed55cf6	0.41672486
14	0x3eb1e14c	0.347422
15	0x3eaeca22	0.3413859
16	0x3ee41044	0.4454366
17	0x3ea59fdc	0.32348526
18	0x3ee83d1c	0.45359123
19	0x3f04fb28	0.51945734
20	0x3db5f56c	0.08884701
21	0x3e8d6ab2	0.27620465
22	0x3ee2484e	0.4419579
23	0x3e964332	0.2934814
24	0x3ece9e9c	0.40355384
25	0x3ec110ea	0.37708217
26	0x3ea188d2	0.31549698
27	0x3e56deac	0.2098338
28	0x3ec7f04a	0.39050514
29	0x3e9c95fc	0.3058318
30	0x3f23beee	0.6396321
31	0x3ec7f346	0.3905279
32	0x3e972bfe	0.2952575
33	0x3e66ab3e	0.22526261
34	0x3ea4915c	0.3214215
35	0x3ea0a6ac	0.3137716
36	0x3e73ba86	0.23801622
37	0x3ec04548	0.37552857
38	0x3ea6e158	0.325938
39	0x3ed18d28	0.40928006
40	0x3f086e90	0.53293705
41	0x3ea57f64	0.32323754
42	0x3e84f57e	0.25968546
43	0x3ec817f8	0.39080787
44	0x3eb63e26	0.3559429
45	0x3f05419e	0.5205325
46	0x3ecbbe8c	0.39793813
47	0x3e9bdce2	0.30441958
48	0x3e8c6fd6	0.27429074
49	0x3ee6b320	0.45058537
50	0x3ec926f6	0.39287537
51	0x3ed20292	0.41017586
52	0x3ec46d42	0.38364607
53	0x3ee7f76c	0.45305955
54	0x3ed9d440	0.42544746
55	0x3e98e0f2	0.2985912
56	0x3ecd1768	0.4005692
57	0x3e9d0a8c	0.3067211
58	0x3f1588c0	0.5841179
59	0x3ec30a0c	0.38093603
60	0x3e9c9f80	0.3059044
61	0x3f08c638	0.5342746
62	0x3e8d8326	0.2763912
63	0x3eeb36de	0.45940298
64	0x3eb73906	0.35785693
65	0x3f0244b6	0.50886095
66	0x3e9da9ca	0.307936
67	0x3ecb5908	0.39716363
68	0x3e97df2e	0.2966246
69	0x3e9908da	0.29889566
70	0x3eb592a0	0.35463428
71	0x3dae3a4a	0.085072115
72	0x3eac5d90	0.33665133
73	0x3ef92148	0.48658204
74	0x3f109ad6	0.5648626
75	0x3f3a67da	0.72814715
76	0x3f08cd74	0.53438497
77	0x3eb5e40a	0.35525542
78	0x3ee6233c	0.44948757
79	0x3ebed188	0.37269235
80	0x3eb42a4a	0.35188514
81	0x3ea2efa0	0.31823444
82	0x3ed8963e	0.42302126
83	0x3ea6c158	0.32569385

output.fc.weight f4 [10, 84]
0	0xbcbea60b	-0.023272535
1	0xbf04ee96	-0.51926553
2	0xbe54f32d	-0.20795889
3	0xbe197517	-0.14986072
4	0xbb0bd4ab	-0.0021336477
5	0xba80f985	-0.0009839988
6	0x3d3438fc	0.043999657
7	0x3c7773b4	0.015103269
8	0xbd46785a	-0.04845462
9	0x3e155241	0.14582159
10	0xbeb60a47	-0.35554716
11	0xbe95efd2	-0.2928453
12	0x3d39f29d	0.04539739
13	0x3d87bac3	0.06627419
14	0xbe2f64ea	-0.1712834
15	0x3d048230	0.03235072
16	0x3d3e765a	0.046499588
17	0xbedf8aff	-0.43660733
18	0x3ccc305e	0.024925407
19	0xbe581f6b	-0.21105735
20	0xbd2032c1	-0.039110903
21	0x3c47b15e	0.012188284
22	0x3d79d6a6	0.06099572
23	0xbde96f8a	-0.113982275
24	0xbec4e072	-0.38452488
25	0xbebb2ed7	-0.36559173
26	0x3dda017c	0.10644814
27	0xbf0d66ed	-0.5523518
28	0x3d0a6990	0.03379208
29	0xbee30474	-0.44339335
30	0xbf05e16a	-0.5229708
31	0x3d2d6179	0.042329285
32	0x3dd19cd8	0.10234994
33	0xbd6d5c1f	-0.05794918
34	0xbd94ef2f	-0.07272183
35	0x3d9beae5	0.07613162
36	0xbdea2e20	-0.11434579
37	0xbe7407e6	-0.23831138
38	0xbe7c1afd	-0.2461967
39	0xbf0a90e2	-0.54127324
40	0xbe3c3298	-0.18378675
41	0xbcd7a275	-0.026322583
42	0x3d7d55bb	0.061849337
43	0x3dd2914e	0.10281621
44	0xbe88be6c	-0.2670778
45	0x3dd73626	0.10508375
46	0xbec49ca7	-0.38400766
47	0x3dc158d1	0.094407685
48	0x3d383f33	0.044982146
49	0xbeb6735b	-0.35634884
50	0xbded103f	-0.11575364
51	0xbe9253be	-0.28579515
52	0xbb999f3a	-0.0046881707
53	0xbeb8de77	-0.36107227
54	0xbeaa595b	-0.33271298
55	0xbea23b64	-0.31685936
56	0xbd9c7be0	-0.07640815
57	0xbf358586	-0.70906866
58	0xbe13274a	-0.14370456
59	0xbeb02405	-0.3440248
60	0xbe8682e1	-0.26271728
61	0xbd854e89	-0.0650912
62	0x3b6b0569	0.003586138
63	0xbe2921fa	-0.16516867
64	0xbe76e25c	-0.24109787
65	0xbec805ed	-0.3906702
66	0xbe3dd1e3	-0.18537097
67	0x3a6fdb9b	0.000914985
68	0x3d57fcec	0.05273144
69	0xbd73b7e4	-0.059501544
70	0x3d13d045	0.036087293
71	0xbdf28ed7	-0.11843651
72	0xbe973c59	-0.2953823
73	0x3d25e5d1	0.040502373
74	0xbcb56c6a	-0.022146422
75	0xbedcd4f8	-0.43131232
76	0xbee5412e	-0.4477629
77	0xbbb264f8	-0.0054441653
78	0xbe9788bf	-0.29596516
79	0x3e00d271	0.12580277
80	0x3d974ed5	0.07388083
81	0xbea12a52	-0.314776
82	0xbebc87db	-0.368224
83	0xbea29d0c	-0.31760442
84	0xbe916f26	-0.28405112
85	0xbda0bf47	-0.07848983
86	0x3cbeed7f	0.023306606
87	0x3d079f28	0.033110768
88	0xbe9f67ab	-0.3113378
89	0xbeaf258d	-0.34208336
90	0xbf159555	-0.5843099
91	0xbd1cf9c8	-0.038324147
92	0xbe1f495d	-0.1555533
93	0x3d5dc8e4	0.054146662
94	0x3d256755	0.04038175
95	0xbe2ccea0	-0.16875696
96	0xbeb29008	-0.34875512
97	0xbdfc670a	-0.12324341
98	0x3ca34245	0.01992906
99	0xbeca81ae	-0.39552063
100	0x3ce9de31	0.028548332
101	0x3dac3a34	0.08409539
102	0xbed6db0f	-0.41964003
103	0x3cfd47f5	0.0309181
104	0xbb8f4845	-0.004372629
105	0xbe783add	-0.24241205
106	0xbefed4fc	-0.4977187
107	0xbebcd0c1	-0.36878017
108	0x3c1addb4	0.009452272
109	0x3d5c02c3	0.05371357
110	0xbec01940	-0.37519264
111	0xbf06843a	-0.5254551
112	0xbca17038	-0.01970683
113	0x3d3bc9c3	0.04584671
114	0xbe704892	-0.23465183
115	0x3d63cc50	0.05561477
116	0xbeb003e3	-0.34377965
117	0xbe7f5a6c	-0.24936837
118	0xbe569cb8	-0.20958221
119	0xbc94d561	-0.018168153
120	0xbe8df469	-0.27725533
121	0x3d8a528a	0.06754024
122	0x3c7f29be	0.015573917
123	0x3c7a90c8	0.015293308
124	0xbf03b4a7	-0.5144753
125	0xbe204d32	-0.15654448
126	0xbec248ab	-0.37946066
127	0xbe53518a	-0.20636573
128	0xbe9af276	-0.30263108
129	0xbdc2fb6e	-0.09520613
130	0xbe755b4e	-0.23960611
131	0xbed7ee42	-0.42173964
132	0xbee13d78	-0.4399221
133	0xbd8ffd1c	-0.07030699
134	0xbec571d1	-0.38563398
135	0xbe876dd6	-0.26450986
136	0xbf2ef467	-0.6834168
137	0xbea92785	-0.33037964
138	0xbeda60e0	-0.42652035
139	0x3d83308c	0.06405744
140	0xbe7dc6f5	-0.24782927
141	0xbd1d2058	-0.038360924
142	0x3e198993	0.14993887
143	0x3d4f3110	0.0505839
144	0xbe2accd3	-0.16679697
145	0x3de0341b	0.10947438
146	0x3cdcfee5	0.026977012
147	0x3d133f42	0.035949
148	0xbeb288fa	-0.3487013
149	0xbe96f487	-0.29483435
150	0xbe94924c	-0.29017866
151	0xbe2e5203	-0.17023472
152	0xbeca6b40	-0.3953495
153	0xbd1f242d	-0.03885286
154	0xbe8cd62e	-0.27507156
155	0xbd8bd131	-0.068270095
156	0xbea674bd	-0.3251094
157	0xbe2c7073	-0.16839771
158	0x3db7db5b	0.089773856
159	0xbcda7d01	-0.026670935
160	0x3d22cf45	0.03974845
161	0xbae7ce00	-0.0017685294
162	0xbe861072	-0.26184422
163	0xbe31f6dc	-0.17379326
164	0xbf25a58c	-0.6470573
165	0xbe76cdf9	-0.2410201
166	0x3b99d976	0.004695113
167	0x3d8b1ca2	0.06792571
168	0xbecc7d0f	-0.39939162
169	0xbf53a877	-0.8267893
170	0xbf0194a9	-0.5061746
171	0x3b99e9bd	0.004697053
172	0xbeab48cd	-0.3345398
173	0xbe466a5e	-0.19376513
174	0xbe95153d	-0.29117766
175	0xbc5db828	-0.013532676
176	0xbe7a46de	-0.24441096
177	0xbe0381f6	-0.12842545
178	0xbddc5295	-0.10757939
179	0x3df8c643	0.121471904
180	0xbef11763	-0.47088155
181	0x3e1f6ab5	0.15568049
182	0xbe582f8e	-0.2111189
183	0x3d89a1c9	0.06720311
184	0xbeb31985	-0.34980407
185	0xbe900792	-0.28130776
186	0xbe8987ad	-0.26861325
187	0x3c2bbcfa	0.010482067
188	0xbc178ae0	-0.009249419
189	0xbe63e6a5	-0.22255953
190	0xbe8aa1c1	-0.27076533
191	0x3da2cf62	0.079497114
192	0xbe80ae65	-0.25133052
193	0xbe1a04d0	-0.15040898
194	0xbd62ab9c	-0.05533944
195	0xbe875337	-0.26430675
196	0x3c27e4b8	0.010247402
197	0xbe17f9b6	-0.14841351
198	0xbea17dc1	-0.31541255
199	0xbe8585a2	-0.26078516
200	0x3c878d36	0.016546827
201	0xbdda8f3c	-0.10671851
202	0x3de846e4	0.11341646
203	0xbcb8d726	-0.022563528
204	0xbdaf8296	-0.08569829
205	0xbd2dfc68	-0.04247704
206	0xbe0930c0	-0.13397503
207	0xbec225cd	-0.37919465
208	0xbe477a4e	-0.1948025
209	0xbd6c7db5	-0.05773707
210	0xbe5c7f83	-0.21533017
211	0x3d8cb68c	0.068707556
212	0xbd2f304d	-0.042770673
213	0xbe6acb7a	-0.22929183
214	0x3cd2b448	0.02572073
215	0x3d983756	0.074324295
216	0xbe88bdee	-0.26707405
217	0xbf17e177	-0.5932841
218	0xbda31976	-0.07963841
219	0xbe43297f	-0.19058798
220	0xbe87a64c	-0.26494062
221	0x3da4d25d	0.08047936
222	0xbe8bdfbe	-0.2731914
223	0xbc6fdb13	-0.014639634
224	0x3d23566e	0.039877348
225	0xbcbbf7a5	-0.022945235
226	0xbe0a5f22	-0.13512853
227	0x3b2f7777	0.0026774087
228	0x3d2b83d7	0.04187378
229	0x3e2e34e3	0.17012362
230	0xbdc2a0f7	-0.09503358
231	0x3d8993cf	0.067176454
232	0x3c90639b	0.01762562
233	0x3dcf9af0	0.10136974
234	0x3e23f3f3	0.16011028
235	0xbee9d82c	-0.4567274
236	0xbda7a7b6	-0.08186285
237	0xbd1cf4d1	-0.038319413
238	0xbcaad415	-0.020853082
239	0xbc4edc1b	-0.012625719
240	0x3d27e396	0.040988527
241	0xbed50d0f	-0.41611525
242	0x3df72417	0.120674305
243	0xbdb6c320	-0.08923936
244	0x3db84c64	0.08998945
245	0xbe2991ee	-0.16559574
246	0xbe92feed	-0.28710118
247	0xbe606d95	-0.21916802
248	0xbe820166	-0.25391692
249	0x3dd4c166	0.1038845
250	0xbe5bd4d6	-0.21467909
251	0x3d334b48	0.043772966
252	0xbd97456b	-0.07386287
253	0xbd9076da	-0.07053919
254	0xbf155d4f	-0.583455
255	0xbdf74c3b	-0.12075087

output.fc.bias f4 [10]
0	0xbc3ab70c	-0.011396181
1	0x3e574366	0.21021804
2	0xbe775df2	-0.24156931
3	0xbdf879e1	-0.121326216
4	0xbd4ee8e5	-0.050515074
5	0xbd169c17	-0.036769953
6	0xbcb95615	-0.022624055
7	0x3d2a01d2	0.041505642
8	0x3de9f349	0.11423356
9	0xbde1ce6c	-0.110257

output.fc.weight_fake_quant.scale f4 [10]
0	0x3bb58554	0.0055395756
1	0x3baef436	0.005339171
2	0x3bd3a8a8	0.0064593144
3	0x3b955d1e	0.0045582196
4	0x3b9aabbe	0.0047201803
5	0x3bab846e	0.0052342927
6	0x3c2903a2	0.010315808
7	0x3c33f556	0.010983786
8	0x3b94af30	0.0045374855
9	0x3b710ece	0.0036782506

output.fc.weight_fake_quant.activation_post_process.min_val f4 [10]
0	0xbf358554	-0.7090657
1	0xbf2ef436	-0.68341386
2	0xbf53a8a8	-0.82679224
3	0xbf155d1e	-0.5834521
4	0xbf1aabbe	-0.6041831
5	0xbf2b846e	-0.66998947
6	0xbfa903a2	-1.3204234
7	0xbfb3f556	-1.4059246
8	0xbf14af30	-0.58079815
9	0xbef10ece	-0.47081608

output.fc.weight_fake_quant.activation_post_process.max_val f4 [10]
0	0x3e155272	0.14582232
1	0x3e198962	0.14993814
2	0x3e2e34b2	0.17012289
3	0x3e51df2a	0.20495287
4	0x3e31fb26	0.17380962
5	0x3e0f3be8	0.13987696
6	0x3e42b7f2	0.19015482
7	0x3e0c804a	0.13720813
8	0x3e379036	0.17926106
9	0x3e71be22	0.23607686
